checkpoint_critic.pth (torch_old, 308649 bytes, 9 tensors)

fcs1.weight f4 [256, 33]
00000000: 79d0 81bb 5633 3dbd 722b 8a3d aaae 813d
00000010: 3a86 57bd 59a3 d53d 3308 debd 46fa cd3c
00000020: 787b d1bb 324b b1bc 151d 163d 6c13 e7bb
00000030: da07 52bd 7aa0 b13c 9def 68bd f250 4bbd
00000040: 605f ae3d a4e9 5dbe f919 efbd 2ce0 7ab8
00000050: 6791 63bd cd15 04bd e3ee 493d be69 fcbc
00000060: 747f 19bc e503 b2bd 9383 4d3b 1039 073e
00000070: 8890 76bc e0fa bebb e699 cebd 064c 663d
00000080: 6cae 82bd a63b 903c 64e0 483c 71c1 f1bd
00000090: c2f2 07be f307 eabd c8c5 513e 27b1 cd3d
000000a0: 84e9 6b3c 25e5 bdbd 9a11 3cbd c542 07bd
000000b0: 9295 a5bc 0cbf 43bd 2251 b2bd 8836 d7bc
000000c0: 10c9 0dbd 9992 5c3d ed3b 6b3c 1335 85bd
000000d0: 40b1 f63c 7ec5 a2bb 3c6d b23b 0816 563c
000000e0: d25d 1bbd d9b9 fcbb ac29 22bd e857 ea3c
000000f0: 2514 c43d 4891 0abd 96bc 4c3d 1396 f3bc
00000100: 9af4 313d f62c 1f3e 1830 b53d 03d2 dd3b
00000110: defe a83d 6e17 c7bd aa0a e33d 9e17 d9bd
00000120: 3a69 b33c 4ce3 183c ea13 93bd a1e1 9dbd
00000130: 2afa 113c 9bbf 0abd a337 273c 45e6 8dbd
00000140: aa23 563a d749 72bd 4dde 433d 716c ce3d
00000150: ed13 9139 da1c ebbc 353b 6abc c5ea aabc
00000160: 0862 c53c 85f0 0bbd c3a3 d0bb 9f2d 6dbd
00000170: f87e 833d aa2b 1a3e 2d61 1dbd e0e3 01bb
00000180: 5eaa 6bbd 4834 3e3d 66f2 5abe 9701 a5bd
00000190: a969 003d 6fc5 bb3c 8de5 923d 7243 c7bd
000001a0: 0503 b33d 6f30 5f3d d9c4 913d 4a39 c33c
000001b0: 4856 413d 388d 07bd 8547 33bd 72e2 3dbd
000001c0: 9beb cd3c a032 71bd 6793 bb3c df90 6ebd
000001d0: 1bbf 263e 3f80 1bbe 1312 bdbd 21d1 913c
000001e0: 8746 6d3c 505a f7bc 2caf 8e3a 37b0 7cbd
000001f0: 0501 4cbc 6791 823d 60de c23c 83e1 87bd
00000200: e649 61bd f39a e63b 82ae 14bd 71cf 0cbe
00000210: 9046 0d3e 3772 3abd 1dbd f3b9 c323 c9bd
00000220: a840 1ebe 5368 6f3d f039 ea3d ca64 36bd
00000230: 8411 ca3d 6f60 9c3d b6a0 d73c f2d4 79bb
00000240: a993 57bd 0777 94bd 6df2 373d 9083 f73b
00000250: 6b15 8c3d 3949 fb3c 88d4 163d 26c0 bfbb
00000260: 5655 f1b9 768c 283b 22b8 113d dd90 49bc
00000270: f773 4c3d 11b9 fc3c a3d6 2d3d 93cc 333c
00000280: 253e ea3c 7830 05bc 411a 74bd 6012 193c
00000290: 570f 423e 22bc 7bbc a0a4 9cbd 91cb cc3c
000002a0: fa3a 2cbe b508 dc3d 9dcc 7a3e 8b21 7abc
000002b0: 4873 8f3c d819 a9bb 2afe 0d3d 39e1 b73c
000002c0: 2a52 79bc da2f 50bc 486d dd3c 2977 733d
000002d0: e80c a939 169b 493e 3207 813c bba0 1c3d
000002e0: 1232 113d 31e7 d2bb 3aa9 783c f63a 9f3c
000002f0: 9e2e 663b 757b 823c e7d8 ccbb 1b74 91bb
00000300: 97dc a43d 4c69 cfbd c48a 073d 7952 cebd
00000310: cc9e 70bd e594 2c3c 972a 9bbd f4ea 773d
00000320: 05f5 d93c 3871 c5bd f80a d03d d61c 403d
00000330: 934c 47bd d149 0f3c 90c7 4ebc 36e9 b6bd
00000340: 70f7 7dbd e232 093d 07fd 7abc c29a 1f39
00000350: 0e73 9abd 749e 34bd a702 0b3e 1cca 833d
00000360: 149f 963d 89b3 afbd ada2 143d d7f4 dd3b
00000370: cf60 383d 5d85 e03c 0de7 8bbd ac50 3bbc
00000380: c797 bbbc 6283 bf3d 5d45 e5bb 68d8 86bc
00000390: cc86 aabd 2cf5 cb3c 15ca 3c3e 7a3e ccbc
000003a0: de51 0f3c 01c8 88bc 3a26 e73d 66dc aabd
000003b0: a20f 073e ae8b c6bc 8e86 0cbc f70d 0f3e
000003c0: 9127 bb3d 2342 21bc eae5 c8bd add5 d33c
000003d0: 215c b7bc bc53 9bbc aea9 32bd 3fe5 ef3d
000003e0: 74a9 e1bc 148a 063c 40f5 a0bd 8a19 e8bd
000003f0: 3676 6d3b 4271 863d 7192 9bbd a295 3f3d
-0.0039616195 -0.046191536 0.06746568 0.06332143 -0.052618243 0.10431547 -0.108414076 0.025143754
-0.0063928925 -0.021642301 0.03664883 -0.007051876 -0.05127702 0.021682967 -0.056869138 -0.049637742
0.08514285 -0.21671158 -0.11674876 -5.981342e-05 -0.05555859 -0.032247353 0.049300086 -0.03081214
-0.009368766 -0.08692149 0.0031358942 0.13205361 -0.015049107 -0.0058282465 -0.100879475 0.056224845
-0.063809246 0.017606568 0.01226053 -0.11804474 -0.13276199 -0.114272974 0.20485604 0.10043555
0.014398936 -0.092722215 -0.045915224 -0.03302266 -0.020212922 -0.04778962 -0.08706881 -0.02627112
-0.034615576 0.053850744 0.014357549 -0.06504264 0.030113816 -0.0049673906 0.0054451507 0.013066776
-0.03793127 -0.0077125845 -0.039590523 0.02860637 0.09574155 -0.033829957 0.049984537 -0.029734647
0.04344616 0.15544495 0.08847064 0.00676942 0.08251737 -0.09721266 0.110860184 -0.10600208
0.021900762 0.009331536 -0.07181533 -0.07709051 0.008909741 -0.033874135 0.010206136 -0.06928686
0.00081687665 -0.05915245 0.047819424 0.10079277 0.000276714 -0.028700281 -0.014296343 -0.0208639
0.024094597 -0.034164924 -0.006367178 -0.057904836 0.06420702 0.15055719 -0.038422752 -0.0019819662
-0.05753552 0.046436578 -0.2138153 -0.08056944 0.031350765 0.022921292 0.071726896 -0.09729661
0.0874081 0.05448955 0.07117624 0.023831028 0.047201425 -0.03309366 -0.04376938 -0.046358533
0.02513676 -0.05888617 0.022897435 -0.05824363 0.16283838 -0.15185641 -0.09231963 0.017799916
0.014482147 -0.030194432 0.0010885946 -0.06169149 -0.012451415 0.063753895 0.023787677 -0.0663481
-0.055002116 0.0070375144 -0.036299236 -0.13751008 0.13796449 -0.04551908 -0.00046489472 -0.09821274
-0.15454352 0.0584491 0.11436832 -0.044529714 0.09866622 0.07635581 0.02632175 -0.003812131
-0.052631054 -0.07249265 0.04490893 0.0075535253 0.06840023 0.030674564 0.03682378 -0.0058517633
-0.00046030682 0.0025718487 0.035575993 -0.0123026045 0.04991528 0.030849965 0.04244102 0.010974067
0.028594086 -0.008129232 -0.05959535 0.00934276 0.18951164 -0.015364679 -0.07648587 0.024999412
-0.16819373 0.10743848 0.24492116 -0.015266786 0.017511025 -0.0051605515 0.034666218 0.022446262
-0.015217343 -0.012706721 0.027029648 0.05943981 0.00032243808 0.19688067 0.015750501 0.038239222
0.03544814 -0.0064362516 0.0151770655 0.019437294 0.0035123 0.01592801 -0.0062514427 -0.0044388897
0.08049887 -0.10127506 0.03309132 -0.10074324 -0.05874519 0.010533546 -0.07576483 0.060526803
0.026606092 -0.096407354 0.10158342 0.0469025 -0.04865701 0.008745627 -0.012620822 -0.089312
-0.062003553 0.03349579 -0.0153191155 0.00015221073 -0.07541476 -0.044096425 0.1357523 0.06435034
0.073545605 -0.085791655 0.036287952 0.006773572 0.0450142 0.027407343 -0.06831179 -0.011432808
-0.022899522 0.09351231 -0.006996794 -0.016460612 -0.08326492 0.02489718 0.18436463 -0.024932135
0.008747546 -0.016696932 0.11286588 -0.08342819 0.13189557 -0.024236526 -0.008577002 0.13970171
0.09138406 -0.009842428 -0.098094776 0.025858724 -0.022382798 -0.018960826 -0.04361885 0.11713647
-0.027546622 0.008211631 -0.07859278 -0.11332996 0.003623379 0.06564571 -0.07596291 0.04677356

fcs1.bias f4 [256]
00000000: 88e3 1bbe 96f2 12be 6959 053d 3c8b dcbd
00000010: eab1 343d 6ce4 c9bd 0518 8bbe d428 dabb
00000020: b315 b7bb 73e5 393d e954 31be 577e ec3d
00000030: 2c1c 17be 73f7 de3d c3cd db3d b7f3 813e
00000040: 943f aebc 058e 96bc b5a1 ddbd 5378 8abd
00000050: d3f9 623d 258a eabd 0646 69bd 2e79 4d3d
00000060: 3ab2 ccbd 4329 693d 91d8 f03d b55b b8bd
00000070: 3fc8 94bd 6ac2 a9bd 2552 abbd 354e 0bbe
00000080: 6656 66bd 2c3c f3bd 057a 1ebe 0ddf 5b3b
00000090: 2805 8cbd 2581 fcbd ab56 373d 698a 5c3d
000000a0: d1b0 2abe 9bc6 d9bd c283 443d c07c d23d
000000b0: 3a05 3a3e 5c7b 0cbe 98fa 8c3d 0cd2 40be
000000c0: 72a4 f03d 81a9 293d 5c98 37be e865 9ebc
000000d0: d755 debd 4b30 b6bd 44e3 96bd 0f2b cabc
000000e0: 1051 78bc 39cc dc3c a73d 31be 736b 7cbd
000000f0: 65da 2bbd 20e0 c5bd 41da 193d 6490 43bd
00000100: 0a89 a2bd a721 44be 0d42 5f3e c2da b4bc
00000110: 7bbe c73c cd17 c1bd 7828 a13d e54d 73bd
00000120: 3ece 5cbe 3889 ae3c 7e10 5abd 277c 8d3d
00000130: 7965 08be f3f6 4cbd 1542 64be 3317 ab3c
00000140: 49aa c53d 1a1c 503d eaaf f3bd 3f7b 47bc
00000150: 4677 9abd 8ac9 0b3d 5e9b 3dbe fce8 4bbe
00000160: 109c 07be 6dca 993c 20c8 653b 6bcf 973c
00000170: 9621 033d fcff a73d 226a 6cbc 7a95 cdbd
00000180: 3cda 0bbd e766 a7bd 702a 97bd c925 b6bb
00000190: d1cd da3d 441e 75bc 7017 51bd 4a2d 443d
000001a0: c446 b83d abbc 99bc da00 06be 78a4 aa38
000001b0: b85e ad3b 3353 4fbd 3f4d 2b3e 3bea 9dbd
000001c0: 2121 32be e176 77be 0601 5e3c 3b22 a2bd
000001d0: 2110 1cbd eef8 afbd ca30 b63d 79f2 e3bd
000001e0: a9d9 f33d acf7 c23d 1117 03be ef95 8ebc
000001f0: 7602 443d 7f3d 553c c707 01be f976 09be
00000200: 6b5a 14be ac6b 8cbe e7ed a2bd 656f 1bbe
00000210: 355c 113e e084 2cbd 4621 4c3d 73bc 20bd
00000220: e933 02bd d6b4 45be cad1 debd 4c19 d2bd
00000230: bdd1 e93b 0430 a2bd 88c7 913d 84dd 82bd
00000240: 9c20 03be 410e c2bd 7b33 18bd 9d90 ec3d
00000250: d975 8b3d 6dd8 13be 4712 2abe 85a6 8ebd
00000260: 545b 35bd b599 b9bd f1cb fe3b 55b6 c6bd
00000270: 6338 8cbc c723 28bc cd71 073d 2de7 51bd
00000280: 785a 44bc b645 26be e6b4 1f3e 1d6a c43d
00000290: d6d6 043d a471 8cbd 3f46 4abe b8e6 2bbe
000002a0: 7072 2ebe a3d2 bbbd 0c74 913d 137f f43d
000002b0: ec47 b3bd c34b cabd f869 95bd 14fb 633d
000002c0: 8d4c b8bd 563e 75bd 3cdf 05be 7fc5 1abe
000002d0: c812 8fbd 167e 87bd 4b53 e3bd ca3d 5abe
000002e0: e8ce 1abd 8567 373d 8e1a cb3c b15e f6bd
000002f0: 2be5 2fbe ab27 993d ab91 58be 2ac8 e9bc
00000300: 09fe 853d b01e 23be e05b adbd 9908 41be
00000310: 2916 4ebc 889c b73d 1fc8 bdbd a4e0 a23d
00000320: 7095 073e 42be d03d 476d 683c 3f99 d53d
00000330: d908 db3d e736 1ebe 1871 e8bd 887a a1bd
00000340: 75b2 98bc 99f4 b33d 8894 15be 9cac 8d3c
00000350: 8f47 adbd 279b 7ebd f1f6 e6bd aade 97bd
00000360: e8ac d8bd 306d 0bbe cbee e2bd f710 183e
00000370: 588d 13bc c970 d5bd 97a1 643d 635c 56be
00000380: ff80 793d 58f2 06be f0f4 f3bd b595 38be
00000390: 0938 d7bd 8490 003e f07f 8f3d 33b7 fbbd
000003a0: 8d84 72be 9299 db3d 4858 01bd bac9 2fbd
000003b0: 0b86 093e 9f6b 59bd 273d 5fbe 6edc 43bd
000003c0: 577a 0dbe 52ec 22be c6b5 b53c 2d3f 77bd
000003d0: 1e86 543d a843 bfbd 597f abbc 3351 423d
000003e0: 25ae cdbd 2b5f 4c3d 8bba 60bd 9372 45be
000003f0: 8395 bcbd 1766 303c 3ce1 6ebd b4ed 1dbe
-0.15223515 -0.14350352 0.03255597 -0.10768744 0.044114985 -0.09858021 -0.27166763 -0.006657699
-0.0055873035 0.045384835 -0.17317547 0.11547535 -0.1475684 0.10887041 0.10732605 0.25381252
-0.02127055 -0.018378267 -0.10821859 -0.06761231 0.055414032 -0.1145213 -0.056951545 0.050164394
-0.099949315 0.056924116 0.11760057 -0.09001867 -0.072647564 -0.08289035 -0.08365277 -0.13604052
-0.05623474 -0.11876711 -0.15476234 0.0033549697 -0.06836921 -0.1232932 0.044760387 0.053842936
-0.16669013 -0.10633584 0.047977217 0.102777004 0.18166056 -0.13718933 0.068837345 -0.18830127
0.117501155 0.041421417 -0.17929214 -0.019335702 -0.108562164 -0.0889593 -0.07367566 -0.024678735
-0.015156046 0.02695285 -0.17308675 -0.06162591 -0.041956324 -0.09661889 0.03756166 -0.047745124
-0.079362944 -0.19153462 0.2180254 -0.022076968 0.02438282 -0.09428368 0.07869047 -0.059400458
-0.2156305 0.021305665 -0.053238384 0.06908446 -0.13319959 -0.050040197 -0.22290833 0.020885086
0.0965162 0.05080805 -0.11898787 -0.01217538 -0.07542281 0.03412775 -0.18516299 -0.19913095
-0.13243127 0.018773282 0.003506191 0.018531522 0.032014452 0.08203122 -0.014429601 -0.10038276
-0.03414367 -0.08173924 -0.07381141 -0.0055587036 0.106837876 -0.014960829 -0.051047742 0.047894754
0.089978725 -0.018766722 -0.13086262 8.1368664e-05 0.0052908324 -0.050616454 0.16728686 -0.077106915
-0.1739545 -0.24166442 0.013550049 -0.07916685 -0.03810132 -0.085924014 0.088960245 -0.11130232
0.1190675 0.09519896 -0.12801768 -0.017405478 0.04785391 0.01301515 -0.12600623 -0.1342429
-0.14487617 -0.27425897 -0.079555325 -0.15179212 0.1419533 -0.042118907 0.04983642 -0.03924222
-0.031787787 -0.19307265 -0.10879858 -0.10258731 0.0071355985 -0.079193145 0.07118136 -0.06389907
-0.12805408 -0.09475375 -0.03715847 0.1155102 0.06809587 -0.14438029 -0.16608535 -0.06965355
-0.04427655 -0.090625204 0.0077757766 -0.09702746 -0.017116731 -0.010262436 0.033067513 -0.051245857
-0.01198446 -0.1623753 0.15596351 0.09590552 0.032431446 -0.06857613 -0.1975336 -0.16787231
-0.17035842 -0.09171035 0.07102212 0.119383 -0.087539524 -0.09877732 -0.072956026 0.05565937
-0.08998976 -0.0598739 -0.13073438 -0.15114401 -0.06986004 -0.06615846 -0.11099871 -0.21312633
-0.037794977 0.04477646 0.024792936 -0.1202978 -0.17177264 0.07478269 -0.21149318 -0.028537828
0.06542594 -0.15929675 -0.084647894 -0.18850936 -0.012578526 0.08965403 -0.09266686 0.07953003
0.132406 0.10192539 0.01418621 0.1042962 0.10695047 -0.15450631 -0.11349696 -0.07884699
-0.018639782 0.08786888 -0.14607441 0.01729422 -0.08460914 -0.062159684 -0.11277569 -0.07415517
-0.10579854 -0.1361587 -0.110807024 0.14850222 -0.009005867 -0.10421903 0.055818167 -0.2093368
0.060914036 -0.13178384 -0.119119525 -0.18025859 -0.10508735 0.12555128 0.07006824 -0.12290802
-0.23683377 0.107226506 -0.031578332 -0.04291699 0.1343004 -0.05308115 -0.21800672 -0.04781764
-0.138162 -0.15910462 0.022181403 -0.060362983 0.051885717 -0.09339076 -0.020934748 0.04744072
-0.10042981 0.049895447 -0.0548654 -0.19281988 -0.092082046 0.010766528 -0.05832027 -0.15422708

fc2.weight f4 [256, 260]
00000000: 1943 93bd 3aa1 2d3d 7808 68bd 3bd7 043d
00000010: 9bca dcbd 00a8 c13c 54bc ac3d cdbe a8bd
00000020: cf29 573c d897 413d b4ef fb3c 9546 063d
00000030: ece9 4cba 9c56 5cbd 3d07 ccbc aaf7 033d
00000040: e71f 2fbd 53c5 3e3c c41e 48bc c038 483d
00000050: d67f 0e3b 3831 25bd 5f16 1cbd 3630 74bd
00000060: cdde 50bc 5186 68bd f4b0 d5bd 1383 1ebd
00000070: 5edd fe3c cc5c c8bc 1a31 26bc 4b22 1d3d
00000080: d30c 303d 8c40 2dbd ef90 32bb 51e9 6abd
00000090: cc24 debd b4e8 acbd 5c5f 9dbd dc25 dc3d
000000a0: 0e9a 5bbd d840 97bd ad45 90bc 2643 013d
000000b0: ef97 6bbd 3ce7 57bd 5edf 16bd c221 463d
000000c0: ba76 1e3d 03c0 b83c f9e9 bd3c cba6 7c3c
000000d0: 31ba 56bd 31d4 ac3c 6a57 24bd 6f74 4bbb
000000e0: d77b 5dbe 42ef 5ebd 598c 8b3d 4c20 86bd
000000f0: bdb7 1bbd 4cee 7a3d 1219 83bc 1314 50bd
00000100: 0277 5ebd 2a0d 1cbc 599b fdbc 8327 afbc
00000110: 9e71 5f3d a2b5 b03c 916f 8ebd 62f3 073d
00000120: 322c 843d ef4b 453d 2b6d 3cbc 5bc3 16be
00000130: 3f25 adbd 7899 3cba 725e 9ebd 955b d13c
00000140: 1b8c 14bd 07ab 2fbd fe57 2ebc e5a9 05ba
00000150: dea7 6c3c 285b 463d 2a21 a7bd c7f0 87bc
00000160: 9946 d2bc 2572 18bd f59d c7bb 87c6 06bc
00000170: 4811 ae3c 23a0 d6bd a9da fabc d4e0 c03b
00000180: 7571 853d cf59 cabc 8796 393d 2360 20be
00000190: ce23 0ebe 53b8 713d 5433 073d 9c5e 93bc
000001a0: 90d3 c4bc 8cdd 7dbc b83b 75bd 0d8f b43d
000001b0: 56f8 dc3d ab9c e5ba e22b 483d 081c 95bc
000001c0: 5696 2cbd 6072 a13a 87c3 d03c e327 233d
000001d0: 16bf e03b f3eb 75bc 6f7d cfba 99b4 cc3d
000001e0: 1c23 17bc 6f7d 85bd 752c 8b3d e124 bcbd
000001f0: aada dbbb f7cc 0e3d 796f 10be 62db f3bb
00000200: 10bb aebb 9114 b93c a548 cebc 23a1 2d3d
00000210: 0c04 cabc 6166 f7bd a4bc 313d 796a 6d3d
00000220: 1223 963c db64 a03d 1aa9 50bd 7f3f 45be
00000230: a5e6 2bbd 7ac5 2cbd 0f39 b7bb f0df d1bc
00000240: 37c5 103d a778 353d e5c2 8b3c a41d 3c3d
00000250: 7e5c 6d3c 236d 5abd d025 a73c fa1c c4bd
00000260: 3be9 1abd e4ac 0c3c 87a4 d5bd 31ad 7cbd
00000270: bab3 333d 705d bebd 03bd 6d3b 49b8 0b3d
00000280: 383f 18bb a6c6 02bc 872a 943d 6259 303c
00000290: 90cb bc3d 1f60 373c 7f4f 05bc 5823 88bd
000002a0: 783d 043e a7d0 113d 7d3b d23d 9594 313a
000002b0: ac9b 87bc 5333 38be b876 b7bc 58ae 0a3d
000002c0: 56b0 e9b7 e3a7 7b3c c07d 32bc 1454 103c
000002d0: b4c9 8dbc 32da 8bbb 9b08 813d 8566 0bbc
000002e0: 8cf0 0abd a1b3 39bc c655 11bd 3016 203d
000002f0: 345d 75bc db93 ba3d 1d31 ff3c 9c24 20bd
00000300: 9480 793c 0ab8 b5bc 3414 28bd 6588 363d
00000310: 5e05 903b dd42 61bb 9961 27bd abb9 663c
00000320: e77d 2e3c 12a7 b3bc c1f0 863d b376 36bd
00000330: 07c1 423c 7a8f 913d a5f3 95bc 74a0 b03d
00000340: 7295 ecbc 10a2 173d 17a5 223d 2485 89bd
00000350: b7c7 87bc 38e7 d2bb 95dd 81bd e17d 933d
00000360: 8d15 c7bc 15cc 153d 2af9 c73d 7fec 8e3c
00000370: c90d cebc 70c2 513d 6ee1 973d 051b 24bd
00000380: ffa5 4dbd 5342 2b3b 29b0 9ebd 5854 fc3d
00000390: 515d 4bbc 7f23 96bd 508a 813c ed3b 023e
000003a0: cd47 b6bd 01d8 8e3d 8549 b0bc 0c2e 243c
000003b0: 29ca ca38 bb9c 263d 36ef cb3c 555f 83bc
000003c0: 6268 3d3d 133a 2dbd 0fca 15bd dbb3 86bd
000003d0: 4321 6dbd 8359 f3bc af06 8ebd 4cb9 fe3c
000003e0: c870 883d 6569 8e3d f001 01bd 15d7 26be
000003f0: aed8 403d 0bab 44bd 57c1 55bc 00f7 c03c
-0.07190532 0.042390086 -0.0566487 0.032431822 -0.107808314 0.023639679 0.08434358 -0.08239517
0.013132527 0.04726395 0.030753948 0.032782156 -0.00078168395 -0.053793535 -0.024905795 0.032218613
-0.042755034 0.011643725 -0.012214366 0.048882246 0.0021743677 -0.04033014 -0.038107272 -0.05961629
-0.012748432 -0.05676872 -0.10434142 -0.03869922 0.031111415 -0.024458311 -0.010143543 0.038362782
0.04298098 -0.042297885 -0.0027247032 -0.057351414 -0.10846862 -0.08442822 -0.07684204 0.107494086
-0.053613715 -0.07385415 -0.017611349 0.03155818 -0.057517942 -0.052710757 -0.036834113 0.048372038
0.038687445 0.022552496 0.023182856 0.015420626 -0.05242366 0.021097274 -0.040122427 -0.0031044742
-0.21629272 -0.054427393 0.068138786 -0.06549129 -0.038017023 0.061262414 -0.016003165 -0.050800394
-0.054312713 -0.009524623 -0.030957865 -0.021381145 0.054551713 0.021570984 -0.06954873 0.033191092
0.06453742 0.04816812 -0.011500637 -0.1472296 -0.0845437 -0.00071944995 -0.07732858 0.025556365
-0.036266427 -0.042887714 -0.010641096 -0.00050988636 0.0144443195 0.048426777 -0.081606224 -0.016594304
-0.02566843 -0.03721823 -0.006091828 -0.008226044 0.021248475 -0.104797624 -0.030621843 0.0058861766
0.06515781 -0.024701027 0.04530957 -0.15661673 -0.13880846 0.059013676 0.033007935 -0.01798945
-0.024026662 -0.015494715 -0.059871405 0.08816347 0.10789554 -0.0017518004 0.048869975 -0.018201843
-0.04213556 0.0012317412 0.02548386 0.03983296 0.0068587167 -0.015009868 -0.0015830229 0.09995384
-0.009224679 -0.06518065 0.06795589 -0.091867216 -0.0067094164 0.03486344 -0.14105023 -0.007441924
-0.005332358 0.022592815 -0.025181124 0.04239 -0.024660133 -0.12080074 0.043392792 0.05796287
0.01832727 0.07831737 -0.050942518 -0.19262503 -0.041968007 -0.042180516 -0.0055915187 -0.025619477
0.03534433 0.044304516 0.017060706 0.045926705 0.014487384 -0.053326737 0.020403773 -0.09575839
-0.037820082 0.008586142 -0.10431772 -0.061688606 0.043872572 -0.092951655 0.003627599 0.034111295
-0.002323104 -0.007981932 0.07234674 0.010763498 0.09218514 0.011192351 -0.008136629 -0.06647366
0.12914073 0.035599377 0.10265253 0.00067741546 -0.016553722 -0.17988329 -0.022395477 0.033857673
-2.7857877e-05 0.0153598515 -0.010894239 0.008809108 -0.017308094 -0.0042679543 0.063004695 -0.008508329
-0.03392081 -0.011334331 -0.03548219 0.03908366 -0.014975835 0.091102324 0.031151349 -0.039097413
0.015228409 -0.022182483 -0.041034892 0.04456367 0.004395171 -0.003437213 -0.04086456 0.014082353
0.010650135 -0.021930251 0.06588889 -0.044546794 0.011886842 0.07107444 -0.018304655 0.08624354
-0.028879855 0.03701979 0.039708223 -0.06714848 -0.016574724 -0.006436255 -0.063410915 0.07201744
-0.024302268 0.03657158 0.09764321 0.017446755 -0.025153058 0.05121082 0.07416044 -0.04006483
-0.050207134 0.0026132062 -0.07748444 0.12320775 -0.012412385 -0.07330989 0.015813023 0.12718172
-0.08900414 0.06974793 -0.021519432 0.010020744 9.669766e-05 0.040676814 0.024894338 -0.016036669
0.046242125 -0.042291712 -0.03656965 -0.065772735 -0.05789305 -0.029705768 -0.069348685 0.031094216
0.06662136 0.06953696 -0.03149599 -0.16292985 0.04708164 -0.04801468 -0.013046584 0.023555279

fc2.bias f4 [256]
00000000: 93aa 10be 2caf dcbd 0488 a63d 0282 c13d
00000010: 5af1 a8bd 9154 d2bd f2c3 063e e119 a5bd
00000020: 79a8 f03c 7895 cabd 1451 e73d 50c8 d8bd
00000030: 439c d8bd 6069 d63d cce9 abbd 62e1 dcbd
00000040: efae a5bd 6326 26bd ecc6 013d aada babd
00000050: 6ed7 613b a621 1bbe 9f7b bcbd 22b7 2fbe
00000060: d89e 36ba cbf1 84bd e16d 14be 81a9 8bbd
00000070: e57f bbbb 41fc 023e a9e2 aebd eb4f b33c
00000080: 5559 1fbd c887 8a3b acb5 033e ed57 1cbd
00000090: f476 75bd baa5 8e3d 7849 03be e58e 44bc
000000a0: d04e 77bd 4f61 23be d343 12be cd64 da3c
000000b0: f8b4 fcbd da9f 553d c0e3 a8bd 65db cabd
000000c0: 5525 5ebd c7f4 05bc 79cd cf3b 9194 5e3d
000000d0: bc89 93bb 7fe8 54bd f5a8 ee3c 60ce 123d
000000e0: d516 c8bd 6567 1c3e b2e0 a03d f6a1 50bd
000000f0: 201a 013e 7075 16bd 0cf9 8839 462b 2abe
00000100: d98a e8bd 19fa 97bd 2b4a 983b c84a f5bd
00000110: a329 4d3d 8fd1 1b3e 0246 1cbe 6086 40be
00000120: 4513 47bd 1a4c 653d 1a43 91bc c94c 9fbd
00000130: 6bdf c7bd 7b63 eebd e9de 15be 952b c4bd
00000140: c42e f4bd 0dc9 253d fa35 d7bd e306 debd
00000150: f240 e1bd 5659 79bd a4e5 be3d c335 dc3d
00000160: 4d24 90bd 2efc d53d eb53 ab3d c338 ce3c
00000170: 5a18 bc3c 2ca4 1ebe dd02 243e 2737 dbbd
00000180: 7223 45be 4e3c babd a58d eebd f6cc 3e3c
00000190: 9a22 713d 6aef 93bc 4821 f3bd 96c6 b8bd
000001a0: 55f7 b8bd 4b9a 81bd 8d21 093e fdce 863d
000001b0: 6353 74bd 0687 e7bd 1695 c3bd bf2d ad3d
000001c0: 4ca4 1cbd abc7 53be 0114 b03d b0c8 493d
000001d0: 73df 573d 2986 c2bd 9b45 bc3c e0f0 a3ba
000001e0: 8e10 db3d 6c4b 0fbe 83ad 26be d83d f4bb
000001f0: 6e17 40bd 6982 4cbd 0c6b 7cbd 0746 933d
00000200: 5d1b 08bd 6fe7 a8bd c35a 07be d070 1dbe
00000210: ac73 04be 935e c6bd 5d40 c73d afeb ff3c
00000220: f15d 1cbe 5006 233e 32c2 52bd b3e9 f5bd
00000230: cfc2 ba3c 1175 35be 3591 8bbd 54ec fb3c
00000240: f992 22bd a9f5 0bbd 3457 04be 6b56 4a3c
00000250: 1696 3abe 8f07 40be c89d af3d 5518 1cbe
00000260: 5647 91bd 2986 cd3b 04b9 56bd 89f2 d03d
00000270: 2f92 a4bd f196 703d 03df 8ebd 99a7 283d
00000280: 40d0 d5bd 4d24 58bd 52b7 47bd 4562 ccbd
00000290: 605f 913d b9e2 e2bc e083 88bd 35bf 38be
000002a0: 79cb 03be 8019 35bc ca3e d0bd 5117 ab3d
000002b0: ad41 bb3d 2201 01be 4bb6 9cbd 12ac 13be
000002c0: 89f5 87bd 06d5 0bbb 1799 e13d cc90 5a3d
000002d0: 0de2 003e d1b7 2c3d 9109 23be 1eba 383d
000002e0: 19bf 80bd dc4f 4fbd 317f c1bd 2029 a2bd
000002f0: a203 8cbd 1e89 f6bd 2044 efbc ce61 a5bd
00000300: fde9 9b3d 883c 8ebc 9a13 fabc 9d89 4d3d
00000310: 3350 59bd 51b5 aebd 1ee7 e2bd c081 afbd
00000320: f6b8 f03d 6b20 f2bc 223d 0a3d f257 11be
00000330: cb32 67bd 3c82 543d 5fd8 973d 9751 84bd
00000340: a918 543d ba15 00be 8496 a1bd 453f 56bd
00000350: ae77 00bc 76fc 99bd 57ee 283d 725a 2fbd
00000360: abcf 083d e641 6f3c 0e79 f9bd 3683 f6bd
00000370: 080b 9ebd ac46 91bc 029e 7c3d 54a1 f8bd
00000380: c3e7 dcbd 4672 edbc 515a fabd d654 6cbd
00000390: e448 113a 05c1 d23b 6b06 1fbd 046b 98bc
000003a0: aa9e 6e3d fd28 cd3d dbc8 16be b042 7d3d
000003b0: 9308 0dbe 8b95 16be baa7 cb3d a3b1 18be
000003c0: e7ec 2dbd f503 de3c 0b08 f4bd 916f 9839
000003d0: 8746 09be 747e bdbd ebf8 0abe bae3 223d
000003e0: 8062 fdbd b349 f5bd f10a df3c b162 1abe
000003f0: 69a1 333c 20a2 5abd 1e04 21be ad3d 3cbd
-0.14127569 -0.10775599 0.08131412 0.09448625 -0.08249159 -0.10270036 0.13160685 -0.08061577
0.029377209 -0.0989179 0.11294761 -0.105850816 -0.105766796 0.104693174 -0.083942026 -0.10785176
-0.080900066 -0.040563952 0.031683847 -0.09123738 0.0034460681 -0.15149555 -0.09203266 -0.17159703
-0.00069664186 -0.06491431 -0.1449504 -0.0681944 -0.0057220333 0.1279154 -0.08539326 0.021888694
-0.038903553 0.004227612 0.12862271 -0.03816979 -0.059927896 0.069652036 -0.12820995 -0.011996959
-0.060377896 -0.15955089 -0.14283685 0.026659394 -0.123392045 0.0521544 -0.08246565 -0.099051274
-0.05423482 -0.008176035 0.006341633 0.054340903 -0.004502503 -0.051979538 0.0291333 0.035841346
-0.0976998 0.15273817 0.07855357 -0.050935708 0.12607622 -0.03673309 0.00026125496 -0.1661807
-0.11354608 -0.07420749 0.0046475134 -0.11977154 0.050088536 0.15216659 -0.15261081 -0.1880126
-0.04860236 0.05598078 -0.017732192 -0.077783175 -0.097594105 -0.11640068 -0.14635815 -0.09578625
-0.11922982 0.04047494 -0.10508342 -0.10841157 -0.109987155 -0.060876213 0.09321144 0.10752442
-0.07038174 0.1044849 0.083656155 0.02517355 0.02296083 -0.15492314 0.16016717 -0.10703879
-0.19251803 -0.090935335 -0.1164811 0.011645546 0.05887089 -0.018058497 -0.11871582 -0.09022252
-0.0903155 -0.06328257 0.13391705 0.06582449 -0.059649836 -0.113050506 -0.0954992 0.08455991
-0.038242623 -0.20681636 0.085975654 0.049263656 0.052703332 -0.09498245 0.02298241 -0.00125077
0.10696517 -0.13993615 -0.16277127 -0.0074536614 -0.046897344 -0.049929056 -0.061625525 0.07191091
-0.03322922 -0.082472675 -0.13218217 -0.15375066 -0.1293475 -0.09686007 0.09729073 0.031240312
-0.15270211 0.15920377 -0.05145473 -0.12007465 0.02279797 -0.17720439 -0.068148054 0.030752338
-0.039690945 -0.034169827 -0.1292389 0.012349705 -0.18221316 -0.18752883 0.08575016 -0.15243657
-0.070936844 0.0062720967 -0.05242254 0.1020251 -0.08035695 0.0587377 -0.0697613 0.04117546
-0.10440111 -0.052768994 -0.048758812 -0.09979681 0.070982695 -0.027696 -0.06665778 -0.1804169
-0.12870587 -0.011053443 -0.10168226 0.083540566 0.09143386 -0.12598088 -0.07651957 -0.14421108
-0.06638629 -0.0021336689 0.11015528 0.053360745 0.12586232 0.04216749 -0.15921618 0.04509937
-0.06286449 -0.05061327 -0.09448088 -0.07918 -0.068366304 -0.12037872 -0.02920729 -0.080752954
0.07612989 -0.017362848 -0.030526925 0.050180066 -0.053055 -0.08530677 -0.11079238 -0.0856967
0.117540285 -0.029556474 0.033749707 -0.14193705 -0.056444924 0.051882014 0.074143164 -0.064608745
0.05178133 -0.12508288 -0.07890037 -0.052306432 -0.007841034 -0.07518856 0.041242924 -0.042810865
0.033401173 0.014603114 -0.121812925 -0.12036745 -0.07716948 -0.017733894 0.061674125 -0.12140146
-0.107863925 -0.028985154 -0.12224258 -0.057698093 0.00055421726 0.006431701 -0.03882448 -0.018605717
0.058256783 0.100175835 -0.14725058 0.061831176 -0.13772802 -0.14705484 0.09944101 -0.14911513
-0.042462256 0.027101496 -0.119155966 0.00029074823 -0.1340581 -0.09252635 -0.13571517 0.03976796
-0.12372303 -0.11976948 0.027226897 -0.1507671 0.010963776 -0.05337727 -0.15724227 -0.045957256

fc3.weight f4 [1, 256]
00000000: de84 9ebd 8e68 4ebd 58e9 1a3d b344 453d
00000010: 01b7 25bd c608 5fbd a4d9 583d 69a6 a93d
00000020: a3ba 3e3d 202c f0bc c526 2e3d 51f6 42bd
00000030: da8f 91bd 9f4f 473d 21bd cb3d 5e5d 1fbd
00000040: 7bd2 26bd 0b63 2ebd b54d 393d 0a0b 22bd
00000050: 9f2e 373d b56d 75bd bf7b 98bd eb98 68bd
00000060: b0eb 9a3d c1cb 1fbd 9eaf d9bd 7e3a 48bd
00000070: 4382 913d 5d63 223d 684b 29bd ad22 603d
00000080: 8e3f aabc 0103 8b3d 18a4 853d b62f 15bd
00000090: af3e 3dbd 373d 553d 55fb 3abd 5cf5 1e3d
000000a0: 3554 913d 7927 93bd 971c 32bd be18 413d
000000b0: fa95 77bd 27e7 693d 0367 edbc 2070 44bd
000000c0: 44b2 803d 1932 483d eba3 633d 1d5c 5e3d
000000d0: 5297 443d 9ddb 6fbd 2f6d 2a3d 3508 4e3d
000000e0: 8b20 36bd 69ac 583d 667b 3e3d 412c 48bd
000000f0: 835b 513d 3c72 3bbd 7f5b 9c3d 0595 4fbd
00000100: 7676 9fbd 3f65 81bd 88a8 993d 604f 88bd
00000110: 1838 453d 6461 503d 63a5 a5bd ceeb babd
00000120: e9c8 843d a22c 733d 402b 16bd a7da 19bd
00000130: bda3 203d 29ea 71bd c7bd 6fbd 46c5 58bd
00000140: c441 6bbd dec7 203d 2942 21bd 8e64 0bbd
00000150: eb89 35bd b1d9 04bd 1254 293d e95b 623d
00000160: e547 08bd fde5 233d a5a4 653d 78f1 4c3d
00000170: d86d 463d 103d 70bd 490f 323d f6e9 82bd
00000180: 7aaa acbd 5934 45bd 07ac 7ebd 83ea 8a3d
00000190: c704 4a3d ad1a 933d 5aa6 8ebd 958d 2cbd
000001a0: 0561 3ebd 8cdf a63d 4fd9 5a3d 91c4 1c3d
000001b0: e2f2 7b3d f1dd 79bd 0247 47bd 8dca 793d
000001c0: 33f6 b0bc 738d dfbd ca48 2d3d fc09 473d
000001d0: 36fc 533d 853f 94bd 1db4 573d 4d7b 873d
000001e0: 4aa5 393d b4ec 88bd 8090 a7bd d859 7b3d
000001f0: 1330 633d 7516 463d c643 a73d 0f33 483d
00000200: caab 6a3d cd4b 13bd c016 5abd bfe9 2ebd
00000210: 280c 06bd d79b edbc 8177 563d c0f5 853d
00000220: bdf9 75bd a34e 583d ec54 433d 95a9 46bd
00000230: 786c 8f3d 49a5 4abd d7d8 6b3d 89a7 5c3d
00000240: df11 583d 460c d3bc 6101 f2bd 3c56 563d
00000250: 7c14 4dbd 20e1 f4bd d87c 523d 466d 89bd
00000260: aae0 f4bc 3e8c 353d c3f6 0ebd 21a0 1c3d
00000270: 576d 7cbd f29f 5f3d 61c2 52bd d282 443d
00000280: bb19 31bd 5ffe 6dbd 8341 ca3d cb99 5dbd
00000290: bc17 533d 5440 3a3d 3115 6abd de98 a3bd
000002a0: 6c3e 34bd 5a71 783d cd23 8bbd 0af2 5c3d
000002b0: aae5 283d 9003 66bd 3a24 b23d a837 3bbd
000002c0: 4ef6 1abd 1adc 843d 21eb 4f3d 5aa4 423d
000002d0: d499 3e3d b003 353d 88fe dabd 707f 323d
000002e0: b12e 803d 4d00 36bd 1e48 9cbd 01eb a63d
000002f0: fa6c cbbc 7a6c 65bd b284 8e3d 4eec 4ebd
00000300: a539 673d a62d 813d ec47 01bd b333 a83d
00000310: 9dac 823d 16bd 25bd f140 51bd ffd8 4ebd
00000320: 613a 4d3d 76e4 783d 1f23 9b3d 9fee b0bd
00000330: 93b7 73bd 9299 793d edac 4d3d d524 49bd
00000340: c330 723d c5d4 73bd a39a 17bd 557f 0c3e
00000350: 42fc 353d 59fb f1bc aedb 393d f918 5dbd
00000360: 660b 4b3d a830 833d 034a 58bd 56ee 39bd
00000370: 37e9 e6bc 7daa 6b3d 64d1 6d3d e717 c0bd
00000380: e6e7 7bbd 7be8 4c3d 4744 07bd 3bd9 20bd
00000390: 09b2 633d e80c 683d b229 7b3d 4ca8 463d
000003a0: 8b90 533d 67ad a13d a576 5abd 3e25 313d
000003b0: 0ac4 fdbd 4b21 c9bd b92f 673d 1d14 97bd
000003c0: e287 f9bc 5fb7 523d 2ad1 90bd faad 6a3d
000003d0: cd97 51bd 5fd1 e2bc 7b48 0cbd b773 633d
000003e0: f3e3 f3bd 2a8a 5bbd e7e4 153d 1a43 8cbd
000003f0: 8a75 4f3d a6fb 16bd 4e4a 8cbd 64e1 a5bc
-0.07740186 -0.05039268 0.03782019 0.04816122 -0.04045773 -0.054451726 0.052941933 0.08283693
0.04656471 -0.029317915 0.042517442 -0.047598187 -0.07107516 0.048659917 0.09948183 -0.0389074
-0.040728074 -0.042574923 0.045240123 -0.03956131 0.044722196 -0.059919078 -0.07445478 -0.05678646
0.07564485 -0.039012674 -0.106291994 -0.048883907 0.071049236 0.03964554 -0.04133168 0.05472057
-0.020782258 0.06787682 0.06525439 -0.036422454 -0.046202358 0.052060332 -0.045649845 0.03880821
0.07096139 -0.07185263 -0.043484297 0.047142737 -0.060445763 0.05710521 -0.028979784 -0.047958493
0.062840015 0.0488759 0.055576246 0.054287065 0.047995873 -0.05855905 0.04160803 0.050300796
-0.04446463 0.0528988 0.0465044 -0.04887033 0.051112663 -0.04576324 0.07634639 -0.050679225
-0.077862665 -0.06318139 0.07502848 -0.066557646 0.0481492 0.05087413 -0.08088186 -0.091270074
0.06483633 0.059368737 -0.03666234 -0.03756204 0.039218653 -0.059061203 -0.058530595 -0.05292251
-0.057435766 0.03925311 -0.039369736 -0.034031443 -0.044320982 -0.03243417 0.04133994 0.055263434
-0.03327169 0.040014256 0.05606522 0.05003497 0.0484446 -0.058651984 0.04347161 -0.06392281
-0.08430953 -0.048145626 -0.062175777 0.06783011 0.049320962 0.071828224 -0.06965323 -0.04212721
-0.046479244 0.08148107 0.053429898 0.038273398 0.061510928 -0.061002675 -0.048651703 0.060984183
-0.021601772 -0.10915651 0.042305745 0.048593506 0.0517542 -0.07238678 0.052662004 0.06615315
0.045323648 -0.066857725 -0.08181858 0.06136498 0.05546577 0.04836126 0.08167224 0.04887682
0.057292737 -0.03596096 -0.053244352 -0.042703386 -0.032726437 -0.029004974 0.05236006 0.06541014
-0.060052622 0.05280937 0.04768841 -0.04850157 0.07003111 -0.049474034 0.05757984 0.05387071
0.05275142 -0.025762688 -0.11816669 0.052328333 -0.050068364 -0.11957002 0.05138859 -0.067102954
-0.029892284 0.0443232 -0.0349033 0.03823865 -0.061627712 0.054595895 -0.051454905 0.047976322
-0.04323743 -0.058103915 0.098757766 -0.054101747 0.051536307 0.045471504 -0.057149116 -0.079881415
-0.044004843 0.060654975 -0.06793938 0.053941764 0.04123465 -0.05615574 0.08698316 -0.045707375
-0.03783255 0.064872935 0.050761346 0.04752002 0.04653342 0.04419297 -0.10693079 0.043578565
0.06258906 -0.04443388 -0.07630943 0.08150292 -0.024832238 -0.056011654 0.06958903 -0.050518326
0.05645146 0.06307535 -0.03156273 0.08212986 0.063805796 -0.04046353 -0.051087324 -0.050499912
0.050104503 0.060764752 0.07575058 -0.08639263 -0.059501242 0.06093747 0.050213743 -0.04910739
0.059128534 -0.059529085 -0.037012707 0.13720448 0.044430025 -0.029538797 0.04537552 -0.053978894
0.049571417 0.06405765 -0.052804958 -0.04539331 -0.028187377 0.057535637 0.05806102 -0.09379559
-0.061500452 0.0500264 -0.0330241 -0.039269667 0.05558971 0.056652933 0.06131906 0.048500344
0.05165152 0.07894402 -0.053335804 0.043248408 -0.12390907 -0.09820803 0.056441996 -0.07376883
-0.030460302 0.051444408 -0.07071145 0.057294823 -0.05117016 -0.027687727 -0.03424881 0.055530276
-0.11908712 -0.05359856 0.03659525 -0.06848736 0.050649203 -0.036861084 -0.0685011 -0.020249076

bn1.weight f4 [256]
00000000: f82c 933e bdb6 2c3f 3c5c e63e f6a5 4b3f
00000010: 4e3e 233f 8693 463f 71be eb3e c548 9b3e
00000020: 9bb0 123f 8551 bd3e 70c4 293f 9cc1 4a3f
00000030: 2334 bd3e 615b 2d3f 69cf aa3e 69c6 233f
00000040: a475 683f 5358 e53e 69c4 223f c4bb 143f
00000050: ac9c 673e 2c7e 683f e7b2 463f e8e3 393f
00000060: d1c2 0a3f 5d7c 703f 75e6 993e 2060 7a3f
00000070: 6c7f 053f 004c 4e3f 3170 853e 7d6a 1c3f
00000080: b015 813e 397f 393f 5ef8 183f e604 0c3f
00000090: 6875 223f 6a18 3f3f bfd0 2d3e e683 273f
000000a0: 9851 f73e c3c8 163f 4803 d63e 8858 203f
000000b0: 0816 1d3f 9828 bf3e 726d 3c3f 3a19 963e
000000c0: fe3a 673e ca1e 5e3f d060 0f3f 0927 4a3f
000000d0: 378a 3e3f 4d9d 283f 6b3b 103f ad29 0d3f
000000e0: a2e7 a93e ad48 c83e 6d8a b63e a691 823e
000000f0: f7bb 3f3f eca8 e43e 81ec 003f 003a 503f
00000100: e265 4f3f 19a3 3a3f e1d1 3c3f ff26 da3e
00000110: 945b 453e 25c4 c23e 5b69 2c3f 67f6 4d3e
00000120: e736 583f d16e 273f cd6c 683f 8882 3f3f
00000130: bb11 e93e 2db9 693f 094d 443f c648 313f
00000140: 49b6 213f d3f3 8a3e 2804 003f 9c7f 393f
00000150: 1753 d03e 04a2 453f be67 563f e2cb 173f
00000160: 70c2 0f3f 26a3 3c3e a104 bc3e abcb b53e
00000170: c381 193f 912f b23e 3ced 2a3e 7a76 903f
00000180: fb4a 4e3f 1a21 0d3f 015c 8d3e da21 fa3e
00000190: 6113 b13d 90c5 3e3e a5d2 3c3f fa6f 573e
000001a0: 8414 253f 2e19 2d3f ea1e 4b3f 4f92 113f
000001b0: 5ceb 213f 6ead b33e 8d7b 6e3e 40e2 ef3e
000001c0: edac 583f 049e 753e 8ac5 bb3e fb10 823e
000001d0: 873c df3e 76f3 453f c97a 573f 9bc5 f53c
000001e0: 571c 0f3f 24ad 743f 431e 9a3e a46c da3e
000001f0: bca9 043f dbd0 173f 5c0f b73e 6703 783f
00000200: a30c dc3e 291c 273f b13b d83e 5a74 4e3f
00000210: 7263 163f 8a38 603f fe80 8b3e 3307 513f
00000220: 0fbe 7e3f efda 2f3f 87f9 143f 9555 d63e
00000230: 33bb 443f b9f4 313e df77 013f 321c 173f
00000240: e89c 0a3f 41a1 373f 54fe 303f 3167 0f3f
00000250: a91f 343f cc71 073f 3a00 613f b4f3 693f
00000260: d0ce 1a3f 936c 043f 3abe f43e 8514 2f3e
00000270: a9e7 203e ffdd d13e 9bd2 593f bae2 9e3e
00000280: b2ba 1c3f c393 5d3f 1d59 3c3f b93c 023f
00000290: 4c1c ec3e bb2c 233f be02 193e 8a84 c13e
000002a0: 5aa3 033f 3b82 003f bc23 b83e f9ee 3a3f
000002b0: 02c1 533f a578 023f 54bf 2c3f de7c 3a3f
000002c0: eb66 513f 8d3f 8f3e 2fb4 5b3f 9f44 ff3e
000002d0: c298 ab3e 690a 3e3e 2d32 3d3f cc8b 1b3f
000002e0: 7327 113f 6c36 da3e 1a16 0c3f bcc6 3e3f
000002f0: 4f6b 573e 650f a13e 7e28 bf3d 5fa3 c93e
00000300: 6e86 2d3f f6ed 203f e4e4 3e3f d46f 7e3f
00000310: 34b7 083f b4fc 403f 39ea b13e c58e 4a3f
00000320: 0c64 053f aa46 e13e ff2f 693e 7d18 693f
00000330: 12c1 543f 4fbe 173d 4bac 393f 807a 003f
00000340: cbba 3f3f 5371 1d3f 1f91 ce3e 4fe1 473f
00000350: 6c85 cb3e 8fce 003f 0aff 3d3f 73fc 283f
00000360: 97a0 533f 1723 793e d3b3 103f 8df9 053f
00000370: b5f6 a93e daef 443f edb0 133e 8b87 583f
00000380: ef74 023f 7122 593f 92ec 853e cdfb cb3d
00000390: 8aa9 6a3f ff2e 0c3f 5c90 343f 8525 613e
000003a0: f5f4 df3e 2fd0 b93e 4c2c 8e3d f37f ae3e
000003b0: b05e 613f 5ace 9d3d 8e97 db3e 5807 683f
000003c0: 5843 313f 15ed 263f 6011 073f d427 993e
000003d0: eb74 2f3f 3d1a ee3e 755b 143f c8d4 9c3e
000003e0: 4f8c 853e 358e 493e 922a c03e bd43 b93e
000003f0: d3e0 4c3f d7c7 1c3f 1bf7 3a3f ac86 4e3f
0.28745246 0.67466336 0.44992244 0.7955011 0.63766944 0.7756885 0.46043733 0.30328956
0.5730073 0.36976257 0.66315365 0.79201674 0.3695384 0.6771756 0.33361366 0.63974625
0.90804505 0.4479395 0.6358095 0.5809901 0.2261836 0.90817523 0.77616733 0.7261338
0.54203516 0.93939763 0.30058637 0.97802925 0.52147555 0.80584717 0.26062158 0.6109999
0.2521186 0.7245975 0.5975398 0.54694974 0.634604 0.7464663 0.16974162 0.65435636
0.4830444 0.5890009 0.41799378 0.6263509 0.6136174 0.37335658 0.736045 0.2931612
0.22581097 0.8676573 0.560071 0.7896581 0.7442965 0.6586502 0.56340665 0.5514172
0.33184534 0.39117947 0.35652485 0.25501746 0.74896187 0.44660127 0.50360876 0.813385
0.81014836 0.7290512 0.7375775 0.42607877 0.19273216 0.3804027 0.6734826 0.20113526
0.84458774 0.6540347 0.90791017 0.7480855 0.4552134 0.9129818 0.76680046 0.6925167
0.6316877 0.27139148 0.5000634 0.7246034 0.40688393 0.7720034 0.8375205 0.59295475
0.56156063 0.18421611 0.36722282 0.3550695 0.59963626 0.34801915 0.1669206 1.1286156
0.8058316 0.55128634 0.27609256 0.48853952 0.08646274 0.18630052 0.7375892 0.2103881
0.6448443 0.67616546 0.79344046 0.56863874 0.63249755 0.35093254 0.23289318 0.46852303
0.84638864 0.2398606 0.36674148 0.2540358 0.43600866 0.77324617 0.8417173 0.030001452
0.5590262 0.9557669 0.30101213 0.4266101 0.51821494 0.59303063 0.35753906 0.9688019
0.4297839 0.65277344 0.4223304 0.8064629 0.5874549 0.8758627 0.2724685 0.8165161
0.99508756 0.6869344 0.5819325 0.4186217 0.76848143 0.1737851 0.50573534 0.590274
0.5414567 0.7173043 0.69138074 0.5601683 0.7036081 0.52908015 0.8789097 0.91387486
0.6047182 0.5172817 0.4780138 0.17097671 0.15713371 0.40989682 0.85086983 0.31032354
0.61222374 0.8655359 0.73573476 0.50873905 0.4611534 0.6374013 0.14942452 0.37796432
0.5142113 0.50198716 0.35964763 0.73020893 0.8271638 0.5096534 0.67479444 0.7284678
0.81797665 0.27978173 0.85821813 0.4985704 0.33514982 0.18558659 0.7390469 0.6076019
0.5670082 0.42619646 0.54721224 0.74521995 0.21037029 0.31457058 0.09333895 0.39382455
0.6778325 0.628631 0.7456801 0.99389386 0.53404546 0.75385594 0.3474901 0.791241
0.52105784 0.43999225 0.22772215 0.9105299 0.831071 0.037046727 0.72528523 0.5018692
0.748944 0.61501044 0.40345094 0.7807817 0.3975023 0.50315183 0.74217284 0.66010207
0.82666916 0.24329792 0.5652439 0.5233391 0.33196035 0.76928484 0.1442296 0.8458182
0.50959677 0.8481818 0.2615705 0.099601366 0.91664946 0.5475921 0.70532775 0.21986969
0.43741575 0.36291644 0.06942043 0.34081993 0.88035107 0.07705374 0.42889065 0.90636206
0.69243383 0.6520551 0.5276089 0.299132 0.6853778 0.46504393 0.5795205 0.3063109
0.2608361 0.19683154 0.3753248 0.36184493 0.80030555 0.6124243 0.73033303 0.8067424

bn1.bias f4 [256]
00000000: c13f bcbc 6126 03be 8270 843d 8014 563c
00000010: 6c29 2e3d 1909 20bd 470c 713d 5897 993d
00000020: 598b 03bd dcca 28bd f561 7f3d 1154 2e3d
00000030: 5756 3fbe 73e0 903d 629e 2d3d 8b6f 17bc
00000040: 2988 0b3e 7fc1 cc3c 1bed 8ebc 4734 8f3d
00000050: 3b29 543d d2d1 8b3d 4f9a 43bc 18e0 fa3d
00000060: 2cfc 9a3d 065b d13c 80e4 60bd c8fc 65bc
00000070: 3841 94bd ebb5 873d eea6 26bd 2e83 5bbe
00000080: a60d 543c 31d1 253d 3746 363d c42a 13be
00000090: 2768 783c 86dd 8d3d 8c98 d83d 1c89 a5bd
000000a0: 4488 173d 1d17 43bc 6bb2 07bd a4bc babd
000000b0: 0bb4 27be a98a 263e b294 8ebd 87b3 9e3c
000000c0: 37c8 8dbb 0072 1abd b386 b1bd 6199 a2bd
000000d0: 2c68 47bd afce ee3d f791 10bd 65c9 c53d
000000e0: f6c5 a53d 059f 83bd 8a00 f53c 6fb4 88bc
000000f0: 1ccb 6d3d db7d a9bd f7d8 94bd c994 ac3d
00000100: fc8d ae3c 46b4 8fbc 522a 113e c12e 813d
00000110: a0f1 bdbd 18e9 5c3d a85f 04bd 3f96 a0bc
00000120: c308 a83d b621 c6bd 17cd 9c3a 38cc 7e3d
00000130: 104a 7b3d 2f79 e6bc 8021 3cbd 822f 86bc
00000140: 7763 f8bd 120c aaba 3ded 88bc 9716 36bd
00000150: 1ca1 2a3d f2b6 25be 0d7a e6bb b69a cdbd
00000160: a873 f93c 4840 253d 2391 71bb 2e7b bf3b
00000170: a152 0cbe b35a 783d 7f6a e9bb c92d 823d
00000180: 8526 a33d 3721 78bc 2569 513d 29ae 78bd
00000190: 4f20 de3d f684 2cba d4d4 c7bc 960c d43d
000001a0: afc7 b03d 33e5 7a3c 50ef 133c ef22 f93c
000001b0: c2d8 3dbd d5f6 96bd 57c8 403d 10e4 2bbd
000001c0: 1647 353e 9b9e 31bd 8574 e23d 3ddd 4dbd
000001d0: 9431 0abe dcf3 cb3c 8c66 083d 5671 52be
000001e0: 4d2d 263a 7e9a a63d c158 d0bc dbff 80bc
000001f0: bd69 bc3b 6f62 803d 373d 863b 7d86 653e
00000200: d339 443d 63f3 f739 f19d a03b 5846 403d
00000210: 693b f1bb 20a6 2a3d 3050 e9bd e04f 3e3d
00000220: e0ae 693e 1787 dfbd 435f 28be a24d 433d
00000230: a4f6 bcbc 8026 4b3e c1be 43bd f90d d5bc
00000240: 3365 7c3c 7a13 963d fc30 ad3d 9f8d 453d
00000250: c9cb 203d a29c 943c 7162 143d 2a54 93bc
00000260: fe42 14bd 2075 9c3d c746 0b3e d22b debb
00000270: b058 9bbd 1ae0 1f3d d3e3 363d 79db 4fbd
00000280: 4e75 fe3d abf7 863d 6e25 febc 6059 0b3d
00000290: 5a1b 043d 43ed a4bc a28f eabd 18bb d53c
000002a0: c790 7e3c a249 73bd c5a1 cb3d c255 013e
000002b0: d9ed aa3d 930a 923d 2104 f8bc 0009 5f3d
000002c0: f19d 213d 8639 d63d fcc0 c8bd 142f 413b
000002d0: c416 29bd 7236 843c d119 32bd c676 5a3d
000002e0: 4591 3b3d 1d6b 313d e347 973b 99ed 903d
000002f0: 8e9b 6fbd 5114 cf3c 8a01 dcbd 6f4b 163d
00000300: da04 873d 907d 10be 74f1 aebd 796b 563d
00000310: 409c bfbd 95bc c8bc 3d75 1e3c 14ee 453d
00000320: 811d ecbc 3970 9e3c 65e0 ad3d d937 debc
00000330: 018c 95bd 5bb3 6dbe e500 5d3c b67d 063e
00000340: 4739 cdbd 1029 44bc ca05 d63d 7482 5bbd
00000350: bb41 173e b33e 2abe 3b8d 0cbc 80ea 90bd
00000360: 5463 8abd f4f2 6dbd 06ca 76bd bc80 14be
00000370: cdca bf3d 6c0c 743d 2bd1 573d b463 a4bd
00000380: 4268 85bd c11f 9639 ad44 47ba 3002 cfbd
00000390: 8fd3 3c3d 09a2 36bd 8764 f7bc d092 f93d
000003a0: 5128 b5bc ed52 b4bd 7a67 03be 5588 783c
000003b0: 2827 b03d 7a99 0bbe 82ed 03be e480 0f3d
000003c0: 6d43 84bb 13a7 36bd d919 2d3d 7e33 dbbc
000003d0: 38de 133d 5a64 703d 814d a8bd c9ce 953c
000003e0: c32b c8bb be47 8fbd 2a53 16bb 0612 8a3c
000003f0: fce6 6bbd f295 0f3d 05f0 693b e238 26be
-0.022979619 -0.12807609 0.06466772 0.013066411 0.04251997 -0.039071176 0.0588496 0.0749957
-0.032115314 -0.041209087 0.06234928 0.04256064 -0.1868528 0.0707406 0.042387374 -0.0092429025
0.1362616 0.02499461 -0.017447045 0.06992393 0.051797133 0.068271294 -0.0119386455 0.12249774
0.07567629 0.025556099 -0.054905415 -0.0140373185 -0.07239002 0.06626495 -0.04068654 -0.2143676
0.012942707 0.040482704 0.044500556 -0.14371783 0.015161551 0.06927018 0.10575971 -0.08082792
0.036995187 -0.011907366 -0.033129137 -0.091180116 -0.16377275 0.16263832 -0.06961955 0.019372715
-0.004326846 -0.037706375 -0.0866827 -0.07939411 -0.04868333 0.116605155 -0.035295453 0.096575536
0.08094399 -0.06426815 0.029907484 -0.0166876 0.05805503 -0.08275958 -0.07267945 0.08426816
0.021307938 -0.017542016 0.141763 0.06307746 -0.09274602 0.053933233 -0.032317787 -0.019602893
0.08204796 -0.096743986 0.0011962977 0.062206477 0.06134993 -0.028133957 -0.045930386 -0.016380075
-0.121283464 -0.0012973568 -0.016714687 -0.044455137 0.041657552 -0.1618307 -0.0070335926 -0.100392744
0.030450657 0.040344507 -0.003686019 0.0058435416 -0.13703395 0.060633373 -0.007123291 0.06356389
0.079663314 -0.015144638 0.051125664 -0.060712967 0.10846006 -0.0006581092 -0.024393477 0.10353963
0.086318366 0.015313434 0.0090292245 0.030412165 -0.046349294 -0.07371298 0.04706606 -0.041965544
0.17702898 -0.04336415 0.110573806 -0.050259817 -0.13495475 0.024896555 0.03330092 -0.20551047
0.0006339148 0.08134936 -0.025432946 -0.015747001 0.0057499097 0.06268775 0.004096653 0.22414584
0.047906708 0.00047292848 0.0049016406 0.046942085 -0.0073618186 0.041662335 -0.11392248 0.046462893
0.22820616 -0.10914438 -0.1644259 0.04768146 -0.023066826 0.19838905 -0.04778934 -0.02600764
0.015404987 0.073279336 0.08456609 0.048230764 0.039256845 0.018141095 0.036226694 -0.017984468
-0.0361967 0.07639527 0.13601218 -0.006780126 -0.07585275 0.03903208 0.044650864 -0.050746415
0.12424718 0.06590208 -0.031023707 0.03402078 0.032252647 -0.020132666 -0.11453177 0.02609019
0.015537447 -0.059396394 0.099429645 0.1263037 0.08346147 0.07130923 -0.030275406 0.054451942
0.039457265 0.104601905 -0.09802434 0.0029477524 -0.041281477 0.016139243 -0.04348165 0.053335927
0.045792837 0.04331504 0.004616724 0.07076568 -0.058497958 0.025278242 -0.10742481 0.036693033
0.06592722 -0.14110398 -0.08542147 0.052348588 -0.09355974 -0.024503985 0.0096715065 0.048322752
-0.028822662 0.019340621 0.084900655 -0.02712624 -0.07302094 -0.2321295 0.013488983 0.13133892
-0.100206904 -0.011972681 0.10450323 -0.053591207 0.14771168 -0.1662548 -0.008578594 -0.07075977
-0.067572266 -0.058093026 -0.06025126 -0.14502233 0.09364853 0.05958216 0.052689712 -0.08026829
-0.06514026 0.00028633888 -0.0007601481 -0.10107839 0.046100195 -0.044588123 -0.030199302 0.121862054
-0.02211395 -0.08804879 -0.12832442 0.015169223 0.086012185 -0.13632765 -0.12883571 0.03503503
-0.004036358 -0.04459293 0.04226098 -0.026757952 0.036100596 0.058689453 -0.08217908 0.01828708
-0.0061087324 -0.069961056 -0.0022937753 0.016854297 -0.05759333 0.03505511 0.0035696041 -0.16232637

bn1.running_mean f4 [256]
00000000: 383b 123e 9bca 2e3e ca46 a23d 2a90 3e3e
00000010: 717e ba3d 57f3 b93d 6a65 fd3c c35d 253e
00000020: 3aa2 ee3c ff11 0f3e 0bd0 f83d cbc9 e23d
00000030: 5517 f33b 32ec 8f3d da4a 8e3e ff60 ac3e
00000040: d21b 4e3e 468c ba3c 740b bb3d 0ce0 f63d
00000050: 9b8f 3d3e aa21 263d d7cc 763d 6a72 753d
00000060: 055c 743d 21e4 813e c122 2a3e 2fda 313d
00000070: 5318 013e 415e 753d fba1 243e cd2c 2e3d
00000080: 8375 683c 8a05 4c3c d78f 093e 9da6 c43d
00000090: 6f64 d63d 98b4 a73d 7d57 923e f667 343d
000000a0: f1c6 263d 7127 a93d 9277 033e 0828 8b3e
000000b0: d42d b13e 984b 3d3d 975e 943e bbb8 263d
000000c0: b6af f23d 0a0b 543d 2acf a33d 7321 243e
000000d0: 6737 2b3d 0361 683d 27c0 f43c f81c f33c
000000e0: 641b d33d edc8 823c 67ef 223e 7c99 363d
000000f0: f968 5b3e cd29 853d 4f15 753d 9bb3 0b3e
00000100: 6228 053e 2c71 123c f7ca ae3e 20e0 aa3d
00000110: 8a75 d03d 379a 843d 93ea 1e3f 793a c63e
00000120: 2a9a 223e 3905 263e 43ca 0c3d d7e7 2b3d
00000130: 7e9f 8d3d c1ef d33c a135 033e ad8b 113d
00000140: f7d0 a53d 5819 263e 1372 d13d 7a38 5d3e
00000150: bdc2 ea3d eb6e 803d 0927 263e 6a75 423d
00000160: a8b9 f03c bf1d cf3e 5072 2b3e b640 ad3d
00000170: eccc 2c3d 6322 f73d 1d4d ca3d a2bb 253d
00000180: d412 cf3e e73f 693d 836b 863d 17c3 353d
00000190: 2b6b a03e e8be 003f 6309 203e bb96 d23d
000001a0: 21c8 a93d 47ed 003d 3f62 de3c 856d 823e
000001b0: 2d05 d33d 0e73 d83c 30c7 e83e 034e 2b3e
000001c0: 15ce 5e3d f328 423c 85e3 873d ff65 9a3c
000001d0: 776d 263e d765 dc3d 3a20 603e c8d0 453d
000001e0: ad0f aa3e e747 b23d fb95 8f3d fac1 b73d
000001f0: 4708 0a3e 0077 fc3d 5d17 ea3d 2548 303e
00000200: b6c1 683d 7b53 263a 5421 a53d f494 603d
00000210: 0c21 d83d e75c 1b3d 8d55 9d3e cb9f 2e3d
00000220: 417f a73d 7778 043d 8c97 363d 230e 903d
00000230: ab5f 7b3d bb4c 993d 04d4 943c 2ab9 893d
00000240: 9a78 1c3d e236 693d a705 893d 80c7 793e
00000250: 6857 923d 9546 553c 7e9e 093e 00bf b33d
00000260: 6a93 7a3e 41fc c83d f190 3d3d be56 bb3d
00000270: f04e d83e dcac 3a3e 66f7 9d3e e0a9 223e
00000280: 7398 ee3d 6bad 633e 1de7 903e e3fb 1a3e
00000290: d7bd 263e 5f57 9a3d 3412 123d 25c1 a63d
000002a0: d9e4 b13c 2422 483e 114d 633e 5b0e 743d
000002b0: 2bde ca3d 11fe ed3c 9cd7 423d fb74 373e
000002c0: aab4 083e 1eb8 aa3e 226e 2a3e 611c 893d
000002d0: bda6 f63c e8d2 0e3e cffd c63c 2cc1 1a3e
000002e0: c1b5 233d 3f90 333e 90c0 2a3c a3e2 0c3d
000002f0: df92 063e 6abb 203e 83bc ab3d b690 223d
00000300: 3be0 ab3d b505 143d 4a6c c03d 3925 733d
00000310: 2c1b 593d 115c ff3c 2a5e f83d 844e ad3e
00000320: 80af 573d 4d3f f73d 689c 9d3d fff2 6e3d
00000330: 115c 7b3e 948c 933c 568d 1b3e ec10 e83d
00000340: 844c c63c 4055 a33d 28d4 903d 1d6d 1f3e
00000350: f958 903e 31f6 723d d627 ff3c 71e2 8e3d
00000360: ee31 ef3c 2626 8a3b 0f31 f03d 1329 9d3e
00000370: 2099 033f 0493 7a3e 1289 493e 46aa c63d
00000380: 2bf2 973d 4f40 913d 59c8 3d3d 1f15 c03e
00000390: 2617 ca3d 0dbd b23e 92c6 503e 65c1 e03c
000003a0: 81db 433d 3683 8e3e b764 653e e451 7d3c
000003b0: 4347 233e 42db cc3e 2a1b 303d 1df2 d43d
000003c0: 6213 bf3c a8e6 0d3e a9c0 223e 231c c33d
000003d0: bda1 423e 0b82 6a3d ecf9 1d3e 7a45 d73d
000003e0: a364 183e b615 2b3e 6a67 8f3e e9ba ea3c
000003f0: f7f3 103e c17b b83c 1366 853e 35b1 e13c
0.14280403 0.17069475 0.07923658 0.18609682 0.09106148 0.090796165 0.030932147 0.16149049
0.02913009 0.13971709 0.12149056 0.11073645 0.007418553 0.070274726 0.27791482 0.33667752
0.201278 0.022771966 0.09133044 0.12054452 0.18511812 0.04055945 0.060253944 0.059923567
0.05965807 0.2536936 0.1661482 0.043420967 0.12606935 0.05990434 0.16077416 0.042523194
0.014188173 0.0124524925 0.13433777 0.096020915 0.10468375 0.081887424 0.28582373 0.044044457
0.04071707 0.08259476 0.12838581 0.2717898 0.34605277 0.04621467 0.28978416 0.040703516
0.118499205 0.05176834 0.07998498 0.16028385 0.041800883 0.056733143 0.029876782 0.0296769
0.10307959 0.01596495 0.15911637 0.044579968 0.21426763 0.065021135 0.059834775 0.13642733
0.13003686 0.008938115 0.34139225 0.0834353 0.10178669 0.06474727 0.6207668 0.38716486
0.15879121 0.1621293 0.03437258 0.041969147 0.06915186 0.02587116 0.12813427 0.035533596
0.080964975 0.16220605 0.10226836 0.21603575 0.11462925 0.06271156 0.16225828 0.047475256
0.029385403 0.40452382 0.16742826 0.08459608 0.042187616 0.120671056 0.098779894 0.040462144
0.40444052 0.056945708 0.06563475 0.044375505 0.31331763 0.502913 0.15628581 0.10282656
0.08290125 0.031476285 0.027146457 0.25474182 0.103037216 0.02642205 0.45464468 0.16728978
0.054395754 0.011850583 0.06635193 0.018847464 0.16252695 0.10761612 0.21887293 0.048294812
0.33215085 0.087051205 0.070110284 0.08972545 0.1347972 0.12327385 0.114302374 0.17215021
0.056825362 0.0006344837 0.080629975 0.054829553 0.10553178 0.037930395 0.30729333 0.04263286
0.08178569 0.032341447 0.04457812 0.07033946 0.061370533 0.07485338 0.018167503 0.0672477
0.038200952 0.056937106 0.06690531 0.2439251 0.07145578 0.013017316 0.13439366 0.08776665
0.24470297 0.098137386 0.046280805 0.09147404 0.42247725 0.18230003 0.30852813 0.15885115
0.11650171 0.22234122 0.28301325 0.1513515 0.16283356 0.07536196 0.03566189 0.08142308
0.021715568 0.19544274 0.22197367 0.059584003 0.099056564 0.029051812 0.047568902 0.17915718
0.13350168 0.33343595 0.16643575 0.06694866 0.030108804 0.13947642 0.024290947 0.15112752
0.039968256 0.17535494 0.010421887 0.034395825 0.13141964 0.15696493 0.08385565 0.03968879
0.08392378 0.036138255 0.093956545 0.05936167 0.05300443 0.03117183 0.12127335 0.33848965
0.052657604 0.120726205 0.07695848 0.058337208 0.2454684 0.018011369 0.15190634 0.113313526
0.024206407 0.079752445 0.070717156 0.15568967 0.2819288 0.059316818 0.031146925 0.06976784
0.029198613 0.0042159734 0.11728107 0.306954 0.51405525 0.24470145 0.19681194 0.09700446
0.07419237 0.07092344 0.046333645 0.37516114 0.098676965 0.3490986 0.20388249 0.027435968
0.047816757 0.2783448 0.22401701 0.015461419 0.15945153 0.4001103 0.042994656 0.10397742
0.023324672 0.1385752 0.15893807 0.09526851 0.19007011 0.057252925 0.15427369 0.105112985
0.1488214 0.16707501 0.28008586 0.028653579 0.14155565 0.022519948 0.2605444 0.02755032
