checkpoint_actor.pth (torch_old, 307634 bytes, 10 tensors)

fc1.weight f4 [256, 33]
000000 f4 80 4f bd 8b 42 92 bd 08 ba 97 bc e9 d7 3f 3d
       -0.05066009 -0.07141598 -0.018521324 0.046836767
000010 bc 1b 0b bd 73 98 91 bc de c9 56 bd ea 91 87 bd
       -0.033961996 -0.017772889 -0.05243861 -0.06619628
000020 52 08 ad 3d dc 5e 0b bc 4d 2c ae 3d 49 bc 25 bd
       0.084488526 -0.008506503 0.085045435 -0.040462766
000030 7b ca 07 bd 5a 1a c5 3d 3c 65 2f bd b2 1d 5b bd
       -0.033152085 0.09624167 -0.042821154 -0.053495117
000040 a5 5c c1 3d 17 ec f0 bc 2f 29 01 3e a1 b6 84 3c
       0.09441499 -0.029409451 0.12613367 0.016200365
000050 fd d9 d1 bd b7 1d 5d 3d 0b 93 ee 3b 8f 53 a7 bc
       -0.10246656 0.053983416 0.0072807125 -0.020425586
000060 77 47 5c 3b 93 fd aa bd 5c 0b 4b 3d 2b 78 60 3d
       0.0033611932 -0.08349147 0.04957138 0.0548021
000070 2d fd d2 3c 5e 6f 60 bd a3 f9 b8 bd e0 7e fa 3b
       0.02575549 -0.054793708 -0.090319894 0.007644519
000080 0b ff 13 3d cd f2 83 bd 03 2d 85 3d 1b a8 8d bd
       0.0361319 -0.06442795 0.06502726 -0.06916829
000090 01 9b d4 bd c5 ec 94 3d d5 54 c7 3b 9f bf 63 3b
       -0.10381127 0.07271723 0.006083111 0.0034751666
0000a0 d8 04 4e 3c 55 25 68 3c 59 50 6d 3d 65 5b 83 3c
       0.012574397 0.014169057 0.057937954 0.016034791
0000b0 b7 72 44 bc c0 34 ec bc 92 f6 47 3d ad 2e db bc
       -0.011990241 -0.028833747 0.048819132 -0.026755655
0000c0 48 7d 37 3d 89 31 b4 3c a0 ff 54 bc e6 a8 2b 3d
       0.044797212 0.021996276 -0.013000399 0.04190912
0000d0 ba 8f b0 3d c7 d9 52 bc 7b 1a 89 bc c4 be 4b bd
       0.08621164 -0.012869305 -0.01673626 -0.049742475
0000e0 6c 3f 92 3c 75 47 0b bb fd 39 01 3e 00 03 92 bd
       0.017852508 -0.0021252309 0.12619777 -0.071294785
0000f0 e3 dd fb 3d 9a 07 89 bc e8 d9 7b 3d 44 31 49 bd
       0.12298181 -0.016727258 0.06148711 -0.04911925
000100 32 b0 19 bd 09 71 20 be 25 6d 73 bd 0a d8 c3 bc
       -0.03752155 -0.1566812 -0.05943026 -0.023906726
000110 53 6d a7 3d bc 9d a7 3d 08 11 05 3e cf 8a 74 3e
       0.08175149 0.08184382 0.12994778 0.23881076
000120 35 86 3c 3d 56 06 a0 3c bd 9c 87 bd ad c2 11 be
       0.046026427 0.019534271 -0.06621692 -0.14234419
000130 a4 7f 04 bd 6c 1d a5 bd b4 1c d5 3c 5a 75 98 bd
       -0.03234829 -0.080622524 0.026014663 -0.07444258
000140 70 f1 ba bc d2 06 0c 3c 11 d1 e1 3d dc 4b 91 bd
       -0.022820204 0.008546548 0.110262044 -0.07094547
000150 31 9d 38 3d 6d fa 4a 3e fd f0 41 bc ab 47 41 bd
       0.045071784 0.19822092 -0.011837241 -0.04718749
000160 97 a8 fc bd b5 1c 02 bd e0 9e 91 bc 77 d3 88 bc
       -0.123368435 -0.03176566 -0.017775953 -0.016702397
000170 38 6e b5 3c 8a f5 0f 3e 70 96 b3 3b 58 46 1e bd
       0.022147283 0.1405851 0.00548058 -0.038641304
000180 6c 4e d2 bd 58 01 5c bd 89 54 bd bc a5 4f c1 3b
       -0.10268864 -0.05371222 -0.023111599 0.005899387
000190 9f 65 41 3d 8a f2 8e 3c 49 e5 0d be cc 03 29 3e
       0.047216054 0.017449636 -0.13856997 0.16505355
0001a0 46 4f 4c bd c2 75 0a bd ca 78 87 bb 00 12 27 3d
       -0.04988029 -0.03380371 -0.004134272 0.04078865
0001b0 0b 4a 3e bd e7 34 32 3c e5 4f 1e 3c e9 06 87 ba
       -0.04645733 0.010876871 0.009662603 -0.0010301742
0001c0 b5 79 e1 bc 0e 9f be bc 18 54 10 bd df 98 dd bd
       -0.027523855 -0.023269203 -0.035236448 -0.108201735
0001d0 f4 67 09 3d 63 0a 9c 3c f2 7f 10 3e 3d ec a0 bc
       0.033546403 0.019047922 0.14111307 -0.019643897
0001e0 ee d4 15 3d ac 59 2b bc f0 80 d9 bc d5 93 ce bc
       0.03658002 -0.010458391 -0.02655074 -0.025216976
0001f0 83 93 49 bc 7f c6 b1 3a c8 90 73 3e 89 7b 69 3d
       -0.012303236 0.0013563185 0.23785698 0.057002578
000200 f2 33 57 3d d5 4c 28 be 18 1d 58 3d 80 46 be 3d
       0.052539773 -0.16435559 0.05276212 0.092907906
000210 e4 b0 25 bd 89 ad 89 3d 81 49 a4 3c 43 db 5c bd
       -0.0404519 0.06722552 0.02005458 -0.05392004
000220 aa 40 28 bd 31 63 b2 3d bd 15 04 be 13 93 bc 3b
       -0.041077293 0.087103255 -0.12898917 0.0057548373
000230 30 9a c0 bc a0 d7 0f bd 9b b0 1d bc 24 1b a2 3c
       -0.023511022 -0.035117745 -0.009624626 0.019788332
000240 8e eb 03 bc c5 0a 90 3d a8 2e a9 bc 8d 20 e8 3c
       -0.008051766 0.07033304 -0.02065213 0.028335834
000250 71 48 e9 3d 19 a1 fc 3c 54 92 4f 3c 84 01 3a bd
       0.1139077 0.030838536 0.012669165 -0.0454116
000260 34 f8 ca bc f1 c5 9c 3c 07 84 d3 3b c3 dd bd 3d
       -0.024776556 0.019137355 0.006454948 0.09270813
000270 fa b4 2d bd 41 50 b1 bc 4a f2 d7 3c ca 24 3f 3e
       -0.04240892 -0.021644713 0.02636065 0.18666378
000280 11 b7 87 3d 60 04 8a bc bc 69 d5 bd 88 50 78 bd
       0.06626714 -0.01684779 -0.10420558 -0.060623676
000290 3f 80 0b 3d 10 b4 10 bd f8 a8 d2 bb 09 a4 ee bc
       0.034057852 -0.03532797 -0.006428834 -0.029130952
0002a0 e5 03 1f 3e d0 43 eb bc ea b7 4d 3d 02 1d da 3c
       0.1552883 -0.028718859 0.050224222 0.02662516
0002b0 5a 32 9a 3b 87 79 61 bc 0c 8e 08 bc 10 e9 2f bd
       0.0047057094 -0.0137618845 -0.008334648 -0.042946875
0002c0 b4 81 fe bb 71 df 66 bd ee 22 30 bd 5a 8b 64 3d
       -0.0077669267 -0.056365434 -0.04300206 0.05579696
0002d0 56 3f 12 3c 3d ba ee bc ee 16 43 3e 64 10 36 be
       0.008926233 -0.02914154 0.19051716 -0.1777969
0002e0 ee 96 8b 3d 0a 67 88 bd a3 a2 01 bc 0b b7 af 3d
       0.06815897 -0.06660278 -0.007912311 0.085798346
0002f0 df ba 84 3c d2 84 ec bc 1f 5e 60 3c d1 2e 7d bd
       0.016202388 -0.028871927 0.013694315 -0.061812226
000300 db 19 01 3e 3a f6 5f bc 96 ed 2a 3d c2 e5 d9 bd
       0.1260752 -0.013669545 0.041730486 -0.10639526
000310 98 dc 15 3d 65 7f d7 3d 35 de c4 bb 78 ac d2 bd
       0.036587328 0.105223455 -0.0060079345 -0.10286802
000320 9e e1 c9 3c 74 df ce 3c 35 9f 4d be 5b d0 9c 3d
       0.024643715 0.025253035 -0.20080264 0.07656928
000330 8a fe a6 bd 1a e7 78 bd cf 2a ad 3c 2f e2 7d bd
       -0.08154018 -0.06076727 0.021138577 -0.061983284
000340 47 f5 66 bb 9c 7a 0b bc ea 04 31 3c 1c e4 d7 3d
       -0.0035241412 -0.008513119 0.010804394 0.10541555
000350 6d ae 3e 3c 44 59 43 3d a9 02 00 bd 6a f3 1e be
       0.011638266 0.047692552 -0.031252537 -0.15522543
000360 a4 18 0b 3e 5c db 05 3d 36 94 05 bd 8d 8c 2a bc
       0.13583618 0.0326799 -0.032612048 -0.0104094865
000370 50 a6 40 3c 0a 33 dd 3a 8c 2e f1 bb b9 81 95 bb
       0.011758402 0.0016876173 -0.007360285 -0.0045625833
000380 db 80 a7 bd 1b 06 ee 3d 15 77 55 bb b0 b8 02 3d
       -0.08178874 0.11622258 -0.00325722 0.031914413
000390 fc f7 ea bd 60 88 a0 bc 0b 31 f5 3c 87 eb be bd
       -0.114730805 -0.019596279 0.029930612 -0.09322267
0003a0 15 13 da 3c 7e ed c4 3c a2 04 de bd 5c 05 c2 3c
       0.026620427 0.024039026 -0.108407274 0.023684196
0003b0 8f 54 bb 3d fd 74 d0 3c 95 5f b6 bc 31 f9 fa 3c
       0.09146988 0.02544641 -0.022262374 0.030636402
0003c0 f8 28 c3 bd 7b 04 a4 bc 2c 6a 02 bd 61 ad db 3b
       -0.095292985 -0.020021668 -0.031839535 0.006704018
0003d0 72 72 ec 3c f7 2b 6c bd bd ea 2c bd d5 08 16 bd
       0.028863166 -0.057659116 -0.04221605 -0.036629517
0003e0 29 d0 24 3e a4 56 32 bd c4 44 4c 3d 95 f5 f9 3c
       0.16095032 -0.04353966 0.049870268 0.03051261
0003f0 8e b2 71 bc 9b f6 31 3d 5d 53 1d bd db af 33 3c
       -0.014752043 0.043448072 -0.03840958 0.01096722

fc1.bias f4 [256]
000000 08 18 11 be 3b 84 3c be 2a 05 30 3d c2 20 6c be
       -0.14169323 -0.18409817 0.042973675 -0.23059371
000010 39 bf 8f bd a8 0e 98 bd 8a b5 6e be ec 6b 9f bc
       -0.07018895 -0.074246705 -0.23311439 -0.01946064
000020 19 eb eb bc 16 b2 3b 3d bb 03 93 bd cb db b9 bb
       -0.028798627 0.045824133 -0.07178446 -0.0056719533
000030 64 1e 8d bd ac a0 88 3b b8 d0 3a bd 50 28 1e 3e
       -0.06890562 0.004169544 -0.045609206 0.15445065
000040 fa 8f b8 bd 32 82 f9 bd cf 4e 3e be 4f 80 fd bd
       -0.09011836 -0.12183036 -0.1858475 -0.123779885
000050 13 4d 81 3c 11 f0 55 be 85 42 17 bd ff 13 f9 3d
       0.015783822 -0.2089236 -0.036928672 0.12162017
000060 9f c9 fd bd d4 b0 09 3c 02 8f 78 3c d2 5a 39 3d
       -0.12391972 0.0084039755 0.0151708145 0.04525263
000070 72 a3 1a bd 93 5d 76 be de 85 30 be 2a d4 cd bd
       -0.03775353 -0.24059133 -0.17238566 -0.10050233
000080 a8 0a c0 bd 75 28 86 bd df f0 ef bd d5 b7 1c bd
       -0.093770325 -0.06550685 -0.117158644 -0.038261253
000090 75 02 28 be 2d 74 2b bc c3 cd 86 3d 7a f9 b7 3d
       -0.16407187 -0.01046471 0.06582215 0.08983131
0000a0 99 40 4e be 3a 9d b3 bd 6d ac c2 3d 4a 51 07 3e
       -0.2014183 -0.08770223 0.09505544 0.13214603
0000b0 20 7f 52 3d 4c fa 0a be ae 35 fe 3d 19 83 10 be
       0.051390767 -0.13572043 0.12412582 -0.1411251
0000c0 f1 b5 8f 3c 59 ec d3 bc bc 8f 27 be e5 dd 15 bd
       0.017542811 -0.025869535 -0.16363424 -0.03658857
0000d0 6c 29 de bc d6 f2 c0 bd 1f 5b a5 bd 10 2f 2f bd
       -0.02711936 -0.09421317 -0.080740206 -0.04276949
0000e0 e8 7c 18 be 2f ab bf 3d dd 1e 6c be 83 aa 7b bd
       -0.14891398 0.093588226 -0.23058648 -0.06144191
0000f0 b9 62 28 be 6e 2f 5f bd 93 5d 90 bd e6 ac f8 bd
       -0.1644391 -0.05448859 -0.07049098 -0.12142353
000100 01 e1 a3 bc 46 9d 58 be 50 ee 5b 3d 34 c3 52 bd
       -0.020004751 -0.21153745 0.05369407 -0.05145569
000110 bb 92 49 bd 4c de 30 be 35 56 b4 bd 5e 51 88 be
       -0.0492122 -0.172723 -0.08805505 -0.26624578
000120 bb 12 bc be d8 07 16 3e 16 dd 72 bd 55 a3 99 bd
       -0.3673304 0.1465143 -0.059292875 -0.07501856
000130 7c ff f4 bd 05 15 cd bc 92 c1 67 be 2c ea bc bd
       -0.11962792 -0.025034437 -0.22632435 -0.09224352
000140 f8 30 12 3d 5d 2d 33 3c 8c 83 e6 bd 8e 2c d4 bd
       0.03569123 0.010936108 -0.11255559 -0.10360061
000150 76 cc 13 be 82 3c 16 bd ee 65 97 be 24 23 02 be
       -0.14433464 -0.0366788 -0.29569954 -0.12708718
000160 56 62 2a be 4e 2c e7 3c 6c 9c 1a be a7 89 69 bc
       -0.16639075 0.028219368 -0.15098733 -0.01425401
000170 6f b5 8b 3d 33 e8 cc bc 53 0a 07 be e5 92 2d be
       0.06821715 -0.025013065 -0.13187532 -0.16950567
000180 40 7e 54 bd b1 30 01 be 7c f3 1c be 2e f4 98 3d
       -0.051878214 -0.1261623 -0.15327257 0.074684486
000190 dc ec ae 3c 9a 68 6f 3d 19 ff 1a 3d 5a ef d1 3d
       0.021353178 0.058449365 0.037840936 0.10250731
0001a0 a4 ba 01 bd 28 fc 29 bd df 33 38 be 69 2b 82 bd
       -0.031672135 -0.04150024 -0.17988537 -0.06355936
0001b0 e8 61 84 be ad 0d 30 bd 13 91 f8 3d 80 af 08 be
       -0.25855947 -0.042981792 0.12137046 -0.13348198
0001c0 ca 58 11 be 3e 70 34 be 18 0f 86 bd 1e 3c 09 be
       -0.14194027 -0.17620942 -0.06545848 -0.13401839
0001d0 81 c5 12 be 2a bd 09 be f4 33 15 3e 85 e6 d7 bd
       -0.14333154 -0.13451067 0.145706 -0.10542015
0001e0 6e a1 95 3b 0c c3 b0 3d 28 8a fd bd b0 07 73 bd
       0.004566363 0.08630952 -0.12379867 -0.059333503
0001f0 60 38 1d 3e ef af 0b bd e4 cb b2 bd 42 40 e9 bd
       0.15353537 -0.03410333 -0.08730295 -0.11389209
000200 88 cf 38 be bb 44 88 be 16 86 63 be ac 8e 1e be
       -0.18047917 -0.26614937 -0.22219118 -0.15484113
000210 fe 9c 58 3c 24 3f 33 ba c4 76 fd bd 88 b3 53 bd
       0.013221024 -0.0006837717 -0.12376168 -0.051684886
000220 70 65 8a bd 37 6a 28 be 48 a2 2f be c7 2e 44 bd
       -0.06757629 -0.16446768 -0.17151749 -0.047896173
000230 14 bd 65 bd 47 09 38 bd 24 ad b6 bb 5b 37 d7 bc
       -0.056088522 -0.044930723 -0.005574839 -0.026271513
000240 72 bb 16 be 66 38 0b be 86 04 e6 bd 73 e2 43 3d
       -0.14719942 -0.13595733 -0.112313315 0.04782338
000250 74 10 83 3d 63 33 28 be a9 14 0e be af 27 1b be
       0.063996226 -0.16425852 -0.13875069 -0.15151857
000260 bc 0a bc ba f8 e5 31 bc 3b 1a 11 3b d1 42 53 bc
       -0.0014346461 -0.0108580515 0.0022140879 -0.012894348
000270 2e b9 31 bc 33 ea ad bc 01 b9 07 be 5d 4f 1a be
       -0.010847373 -0.021229839 -0.13254167 -0.15069337
000280 47 71 d2 bb de 98 d7 bd cc c7 ee 3d e7 2d e1 3c
       -0.006422195 -0.10527204 0.11659202 0.027487708
000290 8b 17 05 3d 16 a7 1a be df 3e 9c bd 3d 30 82 bc
       0.032493155 -0.151028 -0.07629179 -0.015892142
0002a0 35 12 cd bd 84 05 1a be cb 10 a4 3d 6c 35 a7 3c
       -0.10013238 -0.15041167 0.080110155 0.020411216
0002b0 de 5e 24 bc c2 d0 bd bd c6 00 47 bd 9b d2 96 3c
       -0.010032384 -0.09268333 -0.048584722 0.018410971
0002c0 57 e1 48 be 5c aa 64 be 51 30 1e bd b1 8a 46 be
       -0.1961721 -0.22330612 -0.038620297 -0.19388844
0002d0 17 b0 0e be 26 a1 97 bd 12 53 33 3d e4 2b 73 be
       -0.1393436 -0.074037835 0.043780394 -0.23747212
0002e0 e4 6a 90 bd 27 03 2a 3e 76 a0 1e 3d b3 b5 13 be
       -0.07051638 0.16602765 0.038727246 -0.14424782
0002f0 a9 ab 1e be 5c 70 ab 3d eb 68 2b be 60 2f d8 3c
       -0.1549517 0.0837104 -0.16739242 0.026389778
000300 38 b0 3d 3e e1 88 07 be 38 58 88 bd d2 3d 3e be
       0.18524253 -0.13235809 -0.066574514 -0.1857827
000310 bb 34 59 3e fd 9e 5a 3d c6 11 2b be c3 5b ed 3d
       0.21211521 0.05337428 -0.16705999 0.11589768
000320 b0 a8 23 3e 76 1a 14 3d 9f b7 66 3a 54 14 0f 3e
       0.15982318 0.036158048 0.00088011654 0.13972598
000330 76 c7 c5 bc 40 79 cb bd 7c 29 24 bd c9 69 82 be
       -0.024142962 -0.09935236 -0.040078625 -0.25471333
000340 94 09 a1 bd ac d4 9f 3d e9 29 68 be 9b 76 c9 3d
       -0.07863155 0.07804236 -0.22672237 0.09837075
000350 9b 32 16 bd 2c 45 4e bd 5e c8 0f be 6a 7a d1 bd
       -0.036669355 -0.050358936 -0.14041278 -0.10228427
000360 11 81 94 3c 04 c8 c1 bc 09 e9 17 be 33 85 af 3c
       0.01812795 -0.023654945 -0.1483499 0.021425819
000370 e2 67 0f bb cb 4b 81 be 18 63 80 bd 2a 2d 52 be
       -0.0021881987 -0.25253138 -0.06268901 -0.20525041
000380 a8 59 c2 bd 9f 1b f7 bd 00 34 64 be 13 61 30 be
       -0.09489757 -0.12065815 -0.22285461 -0.17224531
000390 30 48 cf 3c 2f 36 97 3d b6 86 1f 3d 77 7f 9e bc
       0.025302976 0.073833816 0.03894683 -0.01934789
0003a0 4a 8d 80 be 6f 0d 97 3c f1 2b 4d bd e1 95 07 be
       -0.25107795 0.018439023 -0.050090734 -0.13240768
0003b0 a9 1d 05 3d 4d 61 ac 3d b2 30 7c be 2c bc 09 be
       0.03249899 0.08416996 -0.24627951 -0.13450688
0003c0 ee d7 02 be 57 81 84 be a8 90 df 3c a2 5f b0 bd
       -0.12777683 -0.25879928 0.027290657 -0.086119905
0003d0 3f 12 47 bb 5b 19 29 be 06 f6 1f bb 34 a7 1a bd
       -0.0030375866 -0.16513579 -0.0024408116 -0.037757114
0003e0 1d 94 00 bd 2a f5 f7 3d 3c 47 02 be a4 c3 54 be
       -0.03139125 0.12107308 -0.12722486 -0.20777756
0003f0 34 66 0c be 39 b0 17 bd e0 5b 4f be 39 cb 20 be
       -0.13710862 -0.037033293 -0.20249891 -0.15702523

fc2.weight f4 [256, 256]
000000 1d 77 0b 3e 98 8e 8b 3d a1 06 9e bd 5b 84 3a 3e
       0.13619657 0.06814307 -0.07716108 0.18214552
000010 18 61 ef 3d b7 8a 0a bc 22 79 0a bd c9 ce 9d 3d
       0.11688441 -0.008455924 -0.033806928 0.07705457
000020 1b 23 86 bd 50 a6 18 bd 52 cf a3 3c 8c 13 e8 3c
       -0.065496646 -0.037267983 0.019996319 0.028329633
000030 7e 19 b1 bd 48 5c f8 3d fc 25 a3 3c 25 c5 98 bd
       -0.086474404 0.12126976 0.019915573 -0.07459477
000040 4a 86 01 3e ec 47 ed 3b da f2 9e 3d 57 28 ed bd
       0.12648883 0.00724124 0.07761164 -0.1157996
000050 82 37 2d be 1d 29 7d 3d fd 03 8d 3c b2 30 9d 3a
       -0.16915706 0.061806787 0.017213816 0.0011992662
000060 e5 7e 06 be 40 80 03 3d 77 03 74 be 33 57 00 be
       -0.13134344 0.03210473 -0.23829447 -0.12533264
000070 84 51 52 be 26 8a bf bc e6 e8 ca bc 34 69 cd bd
       -0.20538908 -0.023381304 -0.024769258 -0.100298315
000080 83 3c 8e be 96 02 c6 bd 34 b1 9e bd 66 99 e9 bc
       -0.27780542 -0.09668462 -0.077486426 -0.028515529
000090 f3 a7 2f 3c 11 a0 1c 3e cd a1 d4 3d 94 52 2f bc
       0.010721195 0.15295435 0.103824235 -0.0107008405
0000a0 c0 ac 7f be 9f 17 8f 3c 89 bb 5d 3d ff 15 96 bd
       -0.24968243 0.017467318 0.054133926 -0.07328414
0000b0 37 84 18 be e2 96 28 3c 3d f9 16 3c c7 f5 17 be
       -0.14894186 0.0102898795 0.0092146965 -0.1483985
0000c0 22 3f 6b bd 54 a7 cd bd 37 8f 76 bc 25 c9 c4 bd
       -0.057433255 -0.10041681 -0.0150487935 -0.09608678
0000d0 a2 5d 6b 3d 0b 14 d3 3b 2f 96 7d 3d ba a1 83 bd
       0.057462342 0.0064415983 0.061910804 -0.06427331
0000e0 87 c9 db bd 6f 86 18 bc e5 63 95 bd 7e ed 94 3c
       -0.10731798 -0.009309395 -0.07294444 0.018179651
0000f0 05 c3 c5 3d c9 2e 83 bc 72 09 b6 bd 60 62 51 bd
       0.09656338 -0.01601352 -0.0888852 -0.05111921
000100 7e 17 e0 bc b7 44 66 3c 5e d3 cc 3c 5d 53 35 bd
       -0.027354952 0.014054469 0.025003131 -0.044268955
000110 0b fa bc bb 7b 57 e2 bd e3 ef 2f be 70 d2 80 3d
       -0.005767112 -0.11051842 -0.17181353 0.06290138
000120 f6 53 42 3d b8 7f 2d 3d e6 23 0c 3e 10 67 c6 3d
       0.047443353 0.04235813 0.13685569 0.09687626
000130 6e 68 36 bc de fa d5 bd 09 07 bb bd d2 08 e0 bb
       -0.011133296 -0.1044824 -0.09132201 -0.006836989
000140 73 73 29 be 5e 9b 42 be 8e 19 0d bd 43 86 d9 bc
       -0.16547947 -0.1900458 -0.0344482 -0.026553279
000150 a6 94 94 bd 80 e2 80 bd 8c 3b 72 bd 6e 99 c9 bd
       -0.07254915 -0.062932014 -0.05913882 -0.098437175
000160 6c 24 28 bd c5 60 01 bc 50 71 ee 3c 43 1d 40 bb
       -0.04105036 -0.007896607 0.029106766 -0.0029314316
000170 a5 22 5d bd 6d 0f 11 3d 57 80 6d be db 43 32 3e
       -0.053988118 0.0354151 -0.23193489 0.17408697
000180 7a 43 04 be 20 59 86 3b e3 c7 03 bd 4d fe cd bd
       -0.12916365 0.00409998 -0.03217305 -0.1005827
000190 de 64 c3 3c 42 df a9 3d 43 3d 37 3d 1e e8 0f be
       0.023851808 0.08294536 0.044736158 -0.1405339
0001a0 11 37 1d bd 13 7d f4 bd eb ec e8 3b 34 a2 ca 3b
       -0.038382594 -0.119379185 0.007108321 0.006183887
0001b0 47 10 ea 3c d1 4e dd bd 8e 62 08 3d 3d a1 21 3c
       0.028572215 -0.10806049 0.033297114 0.009865102
0001c0 c5 7a b2 bc 57 4a 82 be 64 37 95 3d 32 a7 ad 3d
       -0.021787057 -0.25447342 0.072859555 0.084791556
0001d0 34 a0 67 bd b4 ae 2a be 67 18 0d bc 33 93 85 3d
       -0.056549266 -0.16668206 -0.008611775 0.06522217
0001e0 97 e3 2d be 0c 96 28 3d e5 52 97 3c 6e 41 43 be
       -0.1698135 0.04115872 0.018472144 -0.19067928
0001f0 e5 88 c6 ba 18 e3 a2 3b e5 1c 55 3c 46 67 91 bd
       -0.0015146999 0.0049709193 0.013007377 -0.07099776
000200 74 7e d8 bd 7c 32 0b be be 1d 32 3e b1 73 32 bd
       -0.10570994 -0.13593477 0.17394158 -0.043567363
000210 55 ae ac 3c 60 51 1d bd 49 63 da 3b f6 f9 bf 3c
       0.021079222 -0.038407683 0.0066646677 0.02343462
000220 10 94 58 3d 48 fc bb 3c f9 79 4f 3d 54 6e 2a bc
       0.05287558 0.022947446 0.05065343 -0.010402281
000230 82 95 dc 3d 51 53 09 3c 1c 88 cf bd d7 be b2 bd
       0.10770704 0.008381681 -0.10133383 -0.08727806
000240 e0 23 25 bd 5a dc 86 bd 03 89 86 3d dc 23 af bd
       -0.040317416 -0.065849975 0.06569102 -0.085517615
000250 8a 6c d9 bd 3e 61 cd bd 7c 78 ea 3d 3e 09 52 bd
       -0.10616405 -0.10028313 0.11448762 -0.051278345
000260 69 06 ce 3d 7d 58 35 be ca 93 7a bc e7 12 85 bd
       0.100598164 -0.17709537 -0.015294025 -0.06497746
000270 9f 20 58 be 7b 87 55 3d 3e dc 4d bd bc 09 e4 3c
       -0.21106194 0.052131157 -0.050258867 0.027836673
000280 1d b2 59 bc 16 a5 a0 bd d0 35 c6 3d c6 83 93 3d
       -0.013287094 -0.07843988 0.09678233 0.07202868
000290 30 27 db 3d 7b 79 b2 bd e1 71 18 3e 20 36 05 be
       0.10700834 -0.08714577 0.14887191 -0.13008928
0002a0 93 6b eb 3a d2 da 02 3e a1 ef 8a 3c ec 70 cf 3d
       0.0017961137 0.12778786 0.016959967 0.1012896
0002b0 f0 79 36 3c 52 9d 5b 3d 00 94 ca bd 8c 46 85 bd
       0.011137471 0.05361683 -0.0989151 -0.065075964
0002c0 7a 27 7c bd 2c 52 09 3e 6b bb d3 bd e6 b7 3b bd
       -0.061561085 0.13410252 -0.103384815 -0.045829676
0002d0 9e 3c 16 be 63 f3 a2 bd f5 3d 83 bc c7 7b 12 be
       -0.14671561 -0.079565786 -0.016020754 -0.1430503
0002e0 8a ab 49 3c 19 14 2f 3b c7 13 38 be 45 14 98 3c
       0.0123089645 0.002671486 -0.17976294 0.018564353
0002f0 e0 c2 78 bd 7b 17 f5 bc 1c 1f d3 3c c8 e4 1e 3e
       -0.060732722 -0.029918423 0.02577167 0.1551696
000300 cf be da 3d bb c9 9d 3c 43 6a 01 3b 72 41 90 3d
       0.10680925 0.019261232 0.0019747175 0.07043733
000310 c5 b9 12 3e a2 a6 19 bd c4 42 7d be b2 5f 7f 3d
       0.14328678 -0.03751243 -0.247325 0.06234712
000320 de b1 ae 3c 4f 47 54 3d 67 77 14 3c 97 cc 54 3c
       0.021325048 0.051825818 0.009061671 0.012988231
000330 09 af 62 3d 19 d4 de bd 52 2e 4f ba ac be 02 3d
       0.055342708 -0.10880298 -0.00079033256 0.03192012
000340 05 37 85 3d cb 39 03 3e 8a 84 79 be ba 5d a2 3d
       0.06504635 0.12815015 -0.24366966 0.07928033
000350 7d 16 4a bd 2f 1f 6b bd 4a eb 3e bd 53 80 cb bc
       -0.049337853 -0.057402786 -0.046611108 -0.024841463
000360 f8 78 b3 bd b0 04 58 3d 69 14 be bd d1 1a 48 bd
       -0.08763307 0.052738845 -0.09281237 -0.0488537
000370 64 03 e8 bd f0 27 e8 3d 93 cc c3 bc 5f 05 ef 3b
       -0.11328772 0.113357425 -0.02390126 0.0072943415
000380 8f c5 2a 3c fa 62 1b bd 37 56 71 bd f4 1d 92 bd
       0.010423078 -0.03793619 -0.05892011 -0.07134619
000390 f0 f0 1c be 4c 12 93 3d 66 2b 89 3d 21 e6 d7 3d
       -0.15326285 0.07181224 0.06697731 0.105419405
0003a0 6a 5e d1 3d 52 7f cf bd 70 6c e4 bd 6b 3e 63 3c
       0.10223086 -0.10131706 -0.11153495 0.013869862
0003b0 b8 6c 80 ba 8d d7 83 3c fb 91 6e bd e6 b5 ea bd
       -0.0009798026 0.016093994 -0.058244687 -0.114604756
0003c0 6e 8f 80 be 38 15 34 3d 7c ee fa 3d df b0 a2 3c
       -0.25109428 0.04396555 0.122525185 0.01985973
0003d0 61 d3 eb bd 55 99 41 3d 35 3b 23 3d 57 29 18 3d
       -0.11514927 0.04726537 0.039851386 0.0371488
0003e0 87 9b 0c be ef 5c 37 be 24 26 ca bd 03 89 bd 3d
       -0.13731204 -0.17906545 -0.09870556 0.092546485
0003f0 43 36 9e bd e2 26 ba bd b1 21 3e bd 1e d2 4d bc
       -0.07725193 -0.090894476 -0.04641885 -0.012562303

fc2.bias f4 [256]
000000 eb 55 87 bd 7c 74 4e bd 57 5f 76 3c 07 9d 50 bd
       -0.066081844 -0.050404057 0.015037379 -0.050931003
000010 b8 fd b3 3d 84 0d 62 3d d2 b9 ea bb 57 60 6c 3d
       0.087886274 0.05518867 -0.007163265 0.057709064
000020 b3 b5 8c 3d 72 e9 0a bc e1 17 2c bc 74 06 b6 3d
       0.06870594 -0.008478509 -0.01050374 0.088879496
000030 6f 59 95 3d 0b a7 08 3e 64 9a e0 bd 99 52 cb bc
       0.07292449 0.13344972 -0.10966948 -0.02481966
000040 64 f4 fc bd 81 0a 91 3d f8 ff ca 3c 78 5c 79 bd
       -0.12351301 0.070820816 0.024780259 -0.0608792
000050 29 35 91 bd c4 78 81 bd 2e da 72 bc 86 c7 54 3c
       -0.070902176 -0.06321862 -0.014822526 0.012987023
000060 54 34 45 be 93 c0 a6 3c 88 b3 9e bd be 21 bd 3d
       -0.19258243 0.020355498 -0.077490866 0.092349514
000070 80 64 6e bd 95 04 bd bc 9c c9 30 3b 89 1f 89 3d
       -0.058201313 -0.023073474 0.0026975637 0.06695468
000080 fe 8c b0 3d fd 78 7b 3d 6a 84 4b 3d ee 75 e0 3d
       0.08620642 0.06139468 0.049686827 0.10959993
000090 d1 dd 43 3d 15 3e 75 bd ef 09 91 3c 1b 68 0e 3c
       0.047818962 -0.05987366 0.017704932 0.008691813
0000a0 bb 5e 9a bc 1f 23 55 3b db f2 e6 3d 03 52 88 bd
       -0.018844 0.0032522155 0.1127679 -0.066562675
0000b0 f0 f3 a8 bd bf 4c 88 3d 6f 86 53 bd f9 b3 16 3d
       -0.082496524 0.06655263 -0.051641878 0.03679273
0000c0 84 42 39 3b 47 b0 18 3d f9 34 3c 3c c4 13 96 3c
       0.0028268406 0.037277486 0.011487239 0.018319972
0000d0 8e 62 7b bc b8 15 89 3c 95 f6 21 3a c7 8f 9f 3d
       -0.0153433215 0.01673399 0.0006178406 0.07791095
0000e0 e7 dc ad 3c f2 d4 b2 bd 6d 45 16 3d cc 3a 89 3c
       0.021223499 -0.08732022 0.036687303 0.01675167
0000f0 e2 5f f3 3c 11 eb 01 3d 09 55 10 bd 12 77 7f bb
       0.029708806 0.031718317 -0.035237346 -0.0038980884
000100 94 5f 51 3c 6f 4f ca 3d 42 43 e3 3b 81 3d b9 bc
       0.012779135 0.09878432 0.006935508 -0.022612335
000110 7a a4 af 3c e3 46 a1 bd 70 fa 85 bd 10 98 9a 3d
       0.021440733 -0.07874849 -0.06541908 0.07548535
000120 f2 16 ad 3d 56 a3 ac bd b5 47 0f 3e 5c f4 6c 3b
       0.08451642 -0.08429591 0.13992198 0.0036156392
000130 99 f4 87 3c ef b5 e5 3c ae 78 11 3e cb a0 25 3c
       0.016596125 0.028040854 0.14206192 0.010109137
000140 77 f7 16 bd 7c 23 3a 3d 47 ef ac bd c0 75 8c bc
       -0.036857095 0.045443997 -0.08444076 -0.017145991
000150 09 b2 49 3d eb f3 1a bd 5b f3 a6 bd e1 7c a1 3d
       0.049242053 -0.037830275 -0.08151885 0.07885147
000160 b2 f2 99 3d 20 1d 8b 3d e1 9e b7 bc f8 94 94 bd
       0.075169936 0.067926645 -0.022414627 -0.07254976
000170 72 24 9e bd 1d 0e f2 3b 39 f1 82 3d 16 8e 18 3c
       -0.07721795 0.0073869363 0.06393666 0.00931122
000180 83 06 94 bc c9 01 0a 3d f9 05 62 bd 1c 82 aa bd
       -0.018069511 0.03369311 -0.055181477 -0.08325598
000190 04 d8 65 3d 71 fb db bc 35 76 22 bd 80 db 17 3d
       0.05611421 -0.026853295 -0.039663512 0.037074566
0001a0 da 16 b2 bd 70 b8 8e bd 32 f8 85 3d 3d b6 89 3c
       -0.08695765 -0.069687724 0.0654148 0.01681053
0001b0 9a 3d c2 3c 0c 11 74 bd 5e af fd 3c 78 84 84 3d
       0.023711015 -0.05958657 0.03096741 0.06470579
0001c0 8a b4 5d bc 1c 6b 76 bb 97 8e b3 bc c9 b3 26 bc
       -0.013531813 -0.0037600463 -0.021918578 -0.0101747
0001d0 65 8b ac bc 4c d6 92 3d 7c 0f f4 bc 39 a4 1a be
       -0.021062562 0.0716978 -0.02979254 -0.15101708
0001e0 b5 42 6e 3d f2 08 49 3d 0b 4e c9 bc d6 d2 28 bd
       0.058169086 0.049080797 -0.024573347 -0.041216694
0001f0 48 a2 25 be d7 ff 8f 3d dc 6b 0f bd 5a ff b4 bb
       -0.16175187 0.070312195 -0.035014972 -0.0055236043
000200 d6 91 26 3d 7a b0 c7 bc e2 aa ad bd c3 40 3c 3d
       0.040666424 -0.024376143 -0.08479859 0.0459602
000210 f1 3d 61 bd ed be 2b 3d 0a 86 0c 3d c2 4c 09 3c
       -0.054990713 0.041930128 0.034307517 0.008380117
000220 3c 9a c9 bc aa 6e c4 3c e5 57 c9 3c 1a 1e 16 be
       -0.024609677 0.02397855 0.024578044 -0.1465992
000230 38 3e 2a 3b ca e3 ac bd 0d e0 93 bb 69 af 42 bd
       0.0025977027 -0.08441885 -0.004512793 -0.047530565
000240 eb 1a bc bd f4 8c 59 3d 96 9a 34 3d a3 a5 f5 3c
       -0.09184822 0.05311294 0.044092737 0.029986208
000250 c1 22 88 bd 71 6f 32 bd a3 ed 14 3d ec 4a b5 bc
       -0.06647254 -0.04356331 0.03635944 -0.022130452
000260 67 d3 03 bd 3c c5 92 bd 6b 4b 5d 3c 57 a0 28 bc
       -0.03218403 -0.07166526 0.013506751 -0.010292134
000270 e8 13 d3 bc fb fe 74 3d 40 e3 41 3d 40 23 c5 3d
       -0.025766328 0.05981348 0.047335863 0.09625864
000280 df 24 e3 3d 94 26 bf 3d bd ad a1 3c 84 50 bb bd
       0.11091017 0.0933353 0.019736165 -0.091462165
000290 89 81 40 bd 7c a2 9a 3d d1 4e 4b 3d 07 8e 81 3d
       -0.046998534 0.07550523 0.049635712 0.06325918
0002a0 b4 ca c6 bc dd b7 36 3d 97 56 d4 bd 29 f6 9d bd
       -0.024266578 0.04460894 -0.10368078 -0.07712967
0002b0 ce 15 c2 3d dc d6 eb 3d 7b e5 a8 3d ac 5a ae 3b
       0.09476815 0.115155905 0.08246895 0.0053208675
0002c0 a4 65 31 3e 59 92 24 3d 20 2c e0 3c 69 71 49 3d
       0.17323929 0.04017863 0.02736479 0.049180422
0002d0 d3 09 ca 3b 83 d2 d2 3c 2d b4 8d bd 61 cd ed 3c
       0.006165722 0.025735145 -0.069191314 0.029028596
0002e0 7a d4 bf bc c9 60 26 3c 39 d1 65 3d 8c d5 d3 bd
       -0.023416746 0.010154911 0.056107733 -0.10343465
0002f0 20 a6 96 3a 26 b5 6d bd 1e 15 cf 3d 73 ae c7 bb
       0.0011493601 -0.058034085 0.1011145 -0.006093794
000300 64 a1 cb 3b 97 68 e1 3d 90 5d 26 3d 41 f3 15 bc
       0.0062143076 0.11006277 0.040616572 -0.0091522345
000310 8e 28 57 3d 7c 04 15 3d 24 2e ba 3d fb 6a 35 bd
       0.05252891 0.03638123 0.09090832 -0.044291478
000320 15 3e fd bc af b7 5c 3d 46 6b 85 3d 96 e8 6c 3d
       -0.030913392 0.05388611 0.065146014 0.057839
000330 3e c9 91 bd 83 28 16 3c 19 46 c8 3d 18 bf df 3d
       -0.07118462 0.009164932 0.09778995 0.1092512
000340 63 ea 29 3d 2d 0a 99 bc 7f a2 9d 3d df a0 30 ba
       0.041483294 -0.01868161 0.07697009 -0.0006737839
000350 ea 47 88 3c bd 21 fa bc bb 06 69 bd 0e 24 10 bc
       0.016635854 -0.030533666 -0.056891184 -0.008797659
000360 64 42 fe 3d c3 a7 97 bb 81 2b a3 3d fe cd 49 bd
       0.12415007 -0.004628153 0.07967282 -0.049268715
000370 96 05 8d bd 80 d4 e0 b9 ec 47 c0 3d 3d f6 38 bd
       -0.06885831 -0.00042882934 0.09388718 -0.045156706
000380 04 5e d8 bd 73 f8 de bd 46 22 1f 3d 2b 09 e7 bd
       -0.10564807 -0.10887232 0.038851045 -0.112810455
000390 c8 05 ee 3b 23 64 0d 3d 73 b3 2a 3d 10 6a ab bc
       0.007263873 0.034519326 0.041675042 -0.020924598
0003a0 b9 2e 9c 3c 82 c5 8b bc 5d 71 e6 bd 01 62 12 be
       0.019065248 -0.017061953 -0.11252091 -0.14295198
0003b0 dd 38 ad 3d f1 ac 74 3d 57 fb c5 3d f2 d3 96 bc
       0.084581114 0.059735242 0.0966708 -0.01841161
0003c0 f4 31 ba 3d a4 f9 c5 3a 32 eb 16 3d 09 34 79 3d
       0.09091559 0.0015104306 0.036845393 0.06084064
0003d0 52 c0 97 bd c6 9a f3 3c 77 07 f7 3c 01 06 89 bc
       -0.07409729 0.029736888 0.030154927 -0.016726496
0003e0 84 a6 1d bd b0 2c fc 3d 48 2d c5 3c 8e c3 12 bd
       -0.03848888 0.12313211 0.024069443 -0.035831027
0003f0 ca 84 84 bc e2 c3 a6 ba 15 e0 61 3b 73 34 67 bd
       -0.0161766 -0.0012723173 0.0034465839 -0.056446504

fc3.weight f4 [4, 256]
000000 62 98 bd 3d 40 a3 d9 bd 2f 56 c6 3d 0b 89 c7 bd
       0.0925758 -0.106268406 0.09684407 -0.09742936
000010 cc 12 60 3c 77 3a 21 be 5b c6 14 3e c1 9e 14 bd
       0.0136763565 -0.15744959 0.14528792 -0.036284212
000020 af e6 a3 bd dd 77 2b be 33 95 8d bd de 02 05 3e
       -0.08002984 -0.16744943 -0.06913223 0.12989375
000030 09 f5 7b 3c 8e 5a a1 3e cb 2d c6 3e e4 69 27 3e
       0.015378245 0.315144 0.38706812 0.16348988
000040 a5 e2 49 be 06 01 15 bd 16 ff f6 3c 7b f4 18 3e
       -0.19715364 -0.03637793 0.030150931 0.14937012
000050 07 1d 19 be 54 e6 9e 3a da 63 5a bd 2d d3 85 bc
       -0.1495248 0.0012123086 -0.053317882 -0.016336048
000060 7a cd 8d 3d e0 41 34 be 23 db 1f 3d be 7a cc bd
       0.06923957 -0.17603254 0.039027344 -0.09984349
000070 8f 92 af 3d 13 2e a9 3c 1a 43 d9 3d 84 e5 35 3d
       0.08572876 0.020651853 0.10608502 0.044408336
000080 a6 51 d0 bd 1c ed a1 3e 07 2a 74 be ee 9c 2d 3e
       -0.10171823 0.31626213 -0.23844157 0.16954395
000090 ae ff 41 3b fb 5a 07 be a5 12 0d 3e 26 72 9e bd
       0.002960186 -0.132183 0.13776644 -0.07736616
0000a0 41 f0 92 3d 05 65 1b be 73 ae 14 be 42 99 1d be
       0.07174731 -0.15175255 -0.14519672 -0.15390494
0000b0 8b 26 b3 3e b0 d7 9c bd 9e 52 df bd 16 e6 f3 3d
       0.34990343 -0.076583266 -0.1090443 0.1190912
0000c0 7b 5e d8 3c 47 7e ee 3d 3f ef 84 bd 76 7f ac bc
       0.02641224 0.11645179 -0.06490945 -0.021056872
0000d0 43 ed 06 bd b2 93 c5 3e a7 ce f7 3d aa dc 97 bd
       -0.032941114 0.38589245 0.12099963 -0.07415135
0000e0 f4 d9 33 be 45 3b 69 3e b6 f0 80 3b c6 0e 73 bd
       -0.17563611 0.22776516 0.003934945 -0.05934026
0000f0 f9 da c7 bb 28 69 be 3e 7b e2 47 3d f0 70 66 3d
       -0.0060991016 0.37189603 0.048799973 0.05626005
000100 64 7c 88 bd 6c 69 a9 3c d1 b1 9c 3d 6b 59 c9 3e
       -0.06664351 0.020680152 0.07651103 0.39326033
000110 23 3e 57 be 1f 5f c1 3d e7 66 a2 3e 28 49 c1 bd
       -0.21019797 0.09441971 0.31719133 -0.094377816
000120 27 90 ae bd d2 99 dc bd 2b f4 79 bd 6d 97 f8 3b
       -0.08523589 -0.107715264 -0.061023872 0.0075864107
000130 0e 84 9d 3e cb 32 38 3e 4a dd 20 be 1e 18 eb bd
       0.30764812 0.17988126 -0.15709415 -0.11479209
000140 0a da 51 bd 77 56 84 be ae b7 64 3c 95 f8 83 3c
       -0.05123333 -0.25847217 0.013959808 0.016109744
000150 7b f3 13 3e 4d 1a 84 be b5 ca d6 be bf 55 0b be
       0.14448349 -0.25801316 -0.41951528 -0.13606928
000160 e2 21 14 3e a2 2d e1 bd 6a f4 65 bd 66 d8 3f be
       0.1446605 -0.10995032 -0.056141295 -0.18734893
000170 ef 6d 09 bd e8 3c b6 3c ce 2b 01 3e eb a8 8d be
       -0.033552106 0.02224584 0.12614366 -0.27667937
000180 86 9d 1e bd f0 74 0c be 54 32 b5 3e f2 33 09 bd
       -0.038724445 -0.13716483 0.3538996 -0.033496805
000190 e1 82 8a 3d a6 8f 59 be 99 df 40 3e 3a 67 ce 3b
       0.067632444 -0.21246204 0.18835296 0.0062989267
0001a0 97 23 e8 3d a8 7f 99 3d 66 b7 6e bd c3 f4 56 bd
       0.11334913 0.074950516 -0.05828037 -0.052479517
0001b0 c0 53 1b 3d 9e 5a 41 bd 96 6e 8a 39 7f 77 48 3d
       0.037921667 -0.04720556 0.00026403804 0.048942085
0001c0 a5 cf 29 bd bb c3 c1 bc b2 39 61 bd 13 8a 7a bb
       -0.04145779 -0.023652902 -0.054986663 -0.0038229271
0001d0 2d 56 36 3d 97 e6 18 3d b3 26 cf bc e6 a7 a6 bd
       0.044515777 0.037329283 -0.025287008 -0.08137493
0001e0 d1 04 02 3d 96 91 12 bd 92 e7 1a be 07 d0 c5 bd
       0.031742875 -0.035783373 -0.151274 -0.09658819
0001f0 6e 93 2b be 8c e0 87 3e fe 3a 30 3e 1e f8 02 3c
       -0.16755459 0.26538503 0.17210004 0.007993726
000200 74 00 ab 3d 2f a3 eb bc 07 ce ae bd 44 6c 14 bd
       0.08349696 -0.028764335 -0.0853539 -0.036236063
000210 c1 0c 8f bd 4f d0 7f 3e 7e a3 cf bd 2c 4e 44 3e
       -0.069848545 0.24981807 -0.101386055 0.19170445
000220 5a 4e da bd ae 08 1b 3e 52 8b 22 be 66 65 c8 3d
       -0.106594756 0.1514003 -0.15873459 0.09784965
000230 6d 3e 0f 3c cd 9d 7c 3e 3d 3f bb bc 1f 3c c3 3d
       0.008742911 0.24669571 -0.022857303 0.095329516
000240 8e ac 8a be 3c 10 37 3e 51 e2 d2 bd 76 26 15 3c
       -0.27084774 0.17877287 -0.10297073 0.009103408
000250 3a cb 02 be c5 11 4d 3e ba 26 86 3e 96 e6 b4 3c
       -0.12772837 0.2002631 0.2620142 0.022082608
000260 ae 92 43 3e f0 cc 01 3e 52 d9 86 3d ae 62 e0 3e
       0.19098923 0.12675834 0.06584419 0.43825287
000270 d3 d6 a9 3d c2 b2 78 bd b0 7a 74 3e d8 90 e7 ba
       0.082929276 -0.06071735 0.23874927 -0.0017667068
000280 a9 ce 5b bd dd 01 a7 3e 85 28 17 3c fe 95 98 bb
       -0.053663883 0.3261861 0.009225969 -0.0046565523
000290 b7 85 4d 3d ab ed ad 3e 72 c1 d9 3d 14 81 2d 3e
       0.05017635 0.3397039 0.106326 0.1694377
0002a0 0c 01 a5 be 8f 02 b5 3d 0b 7f fc be 7d e7 2f 3c
       -0.3222736 0.08838379 -0.49315676 0.010736343
0002b0 9a 39 c7 bd 6c 3d 78 3d 7a 8e 56 be cc 6f 35 be
       -0.097277835 0.06060545 -0.20952788 -0.17718428
0002c0 53 b9 8a bd f1 e8 88 3e bc ee 60 3e bc 24 fd 3c
       -0.06773629 0.2674022 0.2196607 0.030901305
0002d0 b3 3c 42 3e c9 6d 9c be 90 ae e7 bc 1a 00 52 be
       0.18968467 -0.3055251 -0.02828148 -0.20507851
0002e0 77 01 13 be 45 d5 c0 3d 5b 22 32 bd 3a de 9e 3d
       -0.14356028 0.09415678 -0.043489795 0.0775723
0002f0 8c a6 af b8 6f 58 15 be 2b b7 0f be d1 a7 a3 3c
       -8.375672e-05 -0.14584516 -0.14034717 0.019977482
000300 b7 9c bf bc ce 22 52 be 2a c3 d6 3d a2 4e 1b bd
       -0.023390157 -0.2052109 0.10486443 -0.037916787
000310 d1 bb cc 3d 4c 67 66 3e 30 fa b3 bd 0d 69 6a 3c
       0.09996761 0.22500342 -0.08787954 0.014307273
000320 0a b9 14 bc 30 63 86 3c 69 ea 24 bd ce 58 a7 be
       -0.00907732 0.016404718 -0.040262613 -0.3268494
000330 e9 4d d0 bd 25 9a 01 3e 8e 28 0d be 13 14 80 bd
       -0.1017111 0.12656458 -0.13785002 -0.06253829
000340 68 be 46 bd 43 cf c4 3d 3d 34 8b bd 6b 49 5e bd
       -0.04852143 0.096098445 -0.06797073 -0.054269236
000350 3e eb fa 3d ab c9 e9 bd b3 35 44 be 55 76 ba bb
       0.122519 -0.11415418 -0.1916111 -0.005690376
000360 17 ec 46 be 8a b4 84 be 46 c1 27 bd 70 12 8f 3c
       -0.19425999 -0.2591899 -0.040955804 0.017464846
000370 dc 63 b6 bd b7 a4 02 3a a3 0c 94 bd 75 9f 03 3e
       -0.089057654 0.0004983651 -0.07228973 0.12853797
000380 5e 3e ba be b9 87 51 bd 35 f1 80 3d 3e e1 01 bc
       -0.36375707 -0.051154826 0.062960066 -0.007927237
000390 14 19 14 3d 25 05 93 3c 51 91 d1 bd 75 c0 69 3e
       0.03615673 0.017946789 -0.10232795 0.22827323
0003a0 c7 83 3f 3e 8f 7f 13 3e 46 fe 4f be 4b 46 5e 3e
       0.18702613 0.14404128 -0.20311841 0.21706502
0003b0 59 a0 1e be 35 99 65 bd 6c b3 40 3e b5 d8 80 39
       -0.15490855 -0.056054313 0.18818444 0.00024575522
0003c0 89 68 47 3e 3c 17 7e 3e c0 f2 ef 3d 4a 2b f8 bd
       0.19473471 0.2481355 0.11716223 -0.12117632
0003d0 18 84 c1 3e 0d 82 17 be 88 bf ba bd 50 77 da bc
       0.37796092 -0.14795704 -0.09118563 -0.02666822
0003e0 21 38 be 3d 08 a5 72 be 44 76 36 3e 60 54 58 3e
       0.092880495 -0.23695767 0.17818552 0.21125937
0003f0 4a 5b 0e be 95 9f 30 3e ab 91 f3 3c 04 4d 46 be
       -0.13902012 0.17248376 0.029732546 -0.19365317

fc3.bias f4 [4]
000000 42 5d 4b bd 60 a2 6d bb 42 2d cb bd d6 b6 bc 3d
       -0.049649484 -0.0036260113 -0.099207416 0.09214561

bn1.weight f4 [256]
000000 c1 38 39 3f ff 08 e8 3e 8a 4c 81 3f b4 3c a2 3e
       0.72352225 0.45319363 1.0101483 0.31686938
000010 6f a0 7b 3f cf e1 6c 3f e5 57 39 3f 20 46 36 3f
       0.9829168 0.92532057 0.7239974 0.7120075
000020 52 81 94 3f 0d 21 68 3f 0d 88 d7 3e f8 b4 e0 3e
       1.1601965 0.9067543 0.42095986 0.43888068
000030 11 a8 74 3f 86 1f 91 3f 76 16 48 3f e8 02 25 3f
       0.9556895 1.1337745 0.7815927 0.6445756
000040 d6 16 2b 3f 31 fe 36 3f e4 4f a1 3f e9 e3 07 3f
       0.6683172 0.71481615 1.2602506 0.5308214
000050 b8 5c 19 3f 04 98 d8 3e 6e 1f 2f 3f 4c a2 45 3f
       0.599071 0.4230348 0.6840733 0.7720077
000060 93 a3 6b 3f ed fa 65 3f a3 a9 c4 3e d4 6b d6 3e
       0.9204647 0.8983601 0.38410673 0.4187914
000070 95 ae 6f 3f 07 92 c1 3e b6 bb be 3e 5d a5 7b 3f
       0.93625766 0.37806723 0.37252587 0.982992
000080 7c c6 e4 3e 8b d8 91 3f ef f1 2c 3f 22 9b a5 be
       0.44682682 1.1394209 0.6755666 -0.3234492
000090 40 fd 93 3f 5b 15 66 3f bc 7f 30 3f dd 4d 45 3f
       1.1561661 0.89876336 0.6894491 0.77071935
0000a0 06 a0 5c 3f 88 93 d7 3e ff ce 40 3f c8 2a 84 3f
       0.86181676 0.42104745 0.7531585 1.0325556
0000b0 13 9b e8 3e 0c 92 fb 3e 8d b1 85 3f 94 d9 c6 3e
       0.45430812 0.49134862 1.0444809 0.38837874
0000c0 91 fb 8b 3f 18 1c 49 3f ee 4d 8d 3f d3 f1 0a 3f
       1.0936147 0.7855849 1.1039407 0.54275244
0000d0 ee d7 86 3f 9c e3 0f 3f e4 97 8e 3f 67 a2 0c 3f
       1.0534647 0.5620668 1.1140103 0.54935306
0000e0 50 f3 83 3f 1a 3c 05 3f b1 91 22 3f 57 eb 25 3f
       1.0308628 0.5204483 0.6350356 0.64812225
0000f0 06 4b b3 3e db 6d 92 3f 12 14 89 3f 8e 18 31 3f
       0.35018176 1.1439775 1.070925 0.6917809
000100 3e a9 8d 3f 32 c6 d7 3e ed 67 27 3f 43 c1 33 3f
       1.1067274 0.421434 0.65392953 0.7021677
000110 3f 95 aa 3e f3 06 35 3f 48 e9 42 3f 8c 68 02 3f
       0.3331699 0.7071373 0.7613721 0.50940776
000120 53 c0 e9 3e c8 61 2c 3f 05 11 7f 3f 5b 5d c7 3e
       0.45654544 0.673367 0.99635345 0.38938412
000130 63 bf 3b 3f 8d e9 00 3f c6 5d 5b 3f 21 ae 5d 3f
       0.7333891 0.5035637 0.8568996 0.86593825
000140 6a 96 ca 3e 17 06 5a 3f 86 6d 7d 3f 98 90 27 3f
       0.39567882 0.8516554 0.98995245 0.6545501
000150 6e 4a b3 3e 5e 1b 70 3f b8 86 17 3f 48 54 84 3f
       0.35017723 0.9379176 0.5918994 1.0338221
000160 8e 6a e5 3e 26 b6 ce 3e 16 16 3c 3f 06 ae 15 3f
       0.44807857 0.40373343 0.734712 0.58468664
000170 e7 71 2c 3f 69 32 3d 3f e7 dd eb 3e 2c 8b cf 3e
       0.673613 0.73905045 0.46067736 0.40535867
000180 77 65 3a 3f 4c a9 9d 3f 32 6e 07 3f d6 c0 2f 3f
       0.72811073 1.231729 0.5290252 0.6865362
000190 44 ee 48 3f 2c e6 58 3f 58 69 96 3f 8f 4b 11 3f
       0.78488564 0.84726214 1.1750898 0.5675592
0001a0 7a 25 3a 3f 6e 17 43 3f f7 96 f9 3e 5e 58 67 3f
       0.72713435 0.76207626 0.4874799 0.9036921
0001b0 9c 0c c6 3e 61 05 1c 3f f5 fd 86 3f e3 62 15 3f
       0.38681495 0.6094571 1.0546252 0.58354014
0001c0 30 65 ed 3e 50 dd 14 3f 1c 9d 04 3f ef 09 76 3f
       0.46366262 0.58150196 0.5180223 0.9610891
0001d0 b8 4f 73 3f 3d a8 58 3f 6b 98 84 3f 89 ab 4f 3f
       0.95043516 0.8463171 1.0359014 0.81121117
0001e0 d1 d1 e9 3e 6f b0 13 3f 09 af 2e 3f 9f 15 b3 3e
       0.4566789 0.5769109 0.6823583 0.34977433
0001f0 b9 0f e6 3e a0 fd ee 3e c9 6f 58 3f 35 9b 02 3f
       0.4493387 0.46677876 0.8454557 0.5101808
000200 b4 78 df 3e 82 d2 f9 3e d0 73 6c 3f e2 e8 8b 3f
       0.43646777 0.48793417 0.92364216 1.0930445
000210 5a a4 2e 3f 33 cb 30 3f 28 dd 81 3f e1 1e 47 3f
       0.6821953 0.6906006 1.0145617 0.7778149
000220 27 ac b7 3e 4b 17 36 3f 31 cb 54 3f 24 e6 7d 3f
       0.3587353 0.7112929 0.83122545 0.9917929
000230 fb 44 b7 3e 8b 4b c7 3e 51 74 cd 3e b1 0e fd 3e
       0.35794815 0.38924822 0.40127805 0.4942527
000240 8a 80 6d 3f 67 a4 25 3f 35 81 dc 3e 36 58 23 3f
       0.9277426 0.64703983 0.43067327 0.63806474
000250 40 4d 8b 3f 54 dd d6 3e 23 6b 47 3f 00 fa 23 3f
       1.088295 0.41965735 0.7789785 0.64053345
000260 09 69 0e 3f c5 64 76 3f 78 c1 1f 3f 73 1a cf be
       0.5562902 0.9624751 0.62404585 -0.40449867
000270 a1 e3 67 3f b8 a3 07 3f 09 55 03 3f 45 59 85 3f
       0.9058171 0.5298419 0.5130163 1.0417868
000280 19 d5 4d 3f 3c 4b ec 3e 17 f1 7f 3f 5e b3 90 3f
       0.80403286 0.4615115 0.9997725 1.1304739
000290 f9 e9 54 3f a0 8d e7 3e 65 39 42 3f 7a 3a 80 3f
       0.83169514 0.4522524 0.7586883 1.0017846
0002a0 4f a1 96 3f e7 b7 85 3e 25 b0 6e 3f bb e7 b3 3e
       1.1767977 0.2611687 0.93237525 0.35137734
0002b0 42 8f d1 3e ed d3 fc 3e d9 47 86 3f f4 f0 b5 3e
       0.4092961 0.49380437 1.0490676 0.35535395
0002c0 8f 36 8a 3f a7 45 be 3e 90 b3 8c 3f a1 ef 2a 3f
       1.07979 0.37162516 1.0992298 0.66771895
0002d0 fe 90 2c 3f 2d 1c 8c 3f 34 37 12 3f 1d 50 5d 3e
       0.6740874 1.0946099 0.57115483 0.21612592
0002e0 74 d1 bf 3e 28 45 83 3f fb d8 d1 3e f1 a5 e7 3e
       0.37464488 1.025548 0.40985855 0.4524379
0002f0 69 f4 1b 3f 75 ca e0 3e 59 91 da 3e f3 c6 5f 3f
       0.60919815 0.43904462 0.42689016 0.8741295
000300 94 05 75 3f 11 61 7b 3f b3 85 66 3f 80 bf 2b 3f
       0.95711637 0.98194987 0.9004776 0.6708908
000310 e7 9c 2e 3f 57 06 f8 3e 84 2b d1 3e 52 23 8b 3f
       0.68208164 0.48442337 0.40853512 1.0870154
000320 ec b2 29 3f cc 37 2f 3f ab 25 40 3f 5e c6 0a 3f
       0.6628864 0.68444514 0.75057477 0.54208934
000330 dd 38 b7 3e ba fe 82 3f 7f 0c 4b 3f f2 5d 47 3f
       0.3578557 1.0233986 0.7931594 0.77877724
000340 19 c0 59 3f 2b 3f 73 3f c7 8e a2 3e 89 5c 26 3f
       0.8505874 0.9501826 0.31749555 0.6498495
000350 56 00 74 3f 60 b3 6c 3f ab a3 6a 3f 67 38 f6 3e
       0.9531301 0.92461205 0.9165599 0.48089907
000360 45 21 92 3f df 79 46 3f 9c b1 01 3f 5c 8b a6 3e
       1.1416403 0.7752971 0.50661635 0.32528198
000370 c1 52 37 3f 41 68 e0 3e 49 4a 51 3f 46 18 86 3f
       0.7161065 0.4382954 0.81753975 1.0476158
000380 ff 33 01 3f 75 42 f8 3e e8 df 19 3f 9d 60 3f 3f
       0.50469965 0.48488203 0.6010728 0.74756795
000390 00 af cb 3e 64 33 6c 3f d6 f1 08 3f 70 40 6d 3f
       0.39781952 0.92265916 0.5349401 0.9267645
0003a0 8e eb dc 3e 31 2d 09 3f 93 ca 3f 3f ad 73 89 3f
       0.43148464 0.5358458 0.7491848 1.0738426
0003b0 a7 95 86 3f 44 f2 67 3f 10 58 35 3f e8 d6 13 3f
       1.051442 0.90604043 0.708375 0.57749796
0003c0 39 5c be 3e 53 80 e5 3e 82 c3 a3 be 10 2e 20 3f
       0.37179735 0.44824466 -0.31985098 0.62570286
0003d0 2e d1 89 3f 72 b0 73 3f 25 e2 0c 3f 4f 09 76 3f
       1.0766962 0.9519111 0.5503257 0.96107954
0003e0 22 57 69 3f 18 da 7d 3f 35 4a 1f 3f 83 a7 e1 3e
       0.9114858 0.9916091 0.62222606 0.44073114
0003f0 86 be 8b 3f b2 1d f3 3e d3 51 6e 3f cf da 12 3f
       1.0917518 0.47483593 0.93093604 0.57365125

bn1.bias f4 [256]
000000 50 ca 3c 3c f3 98 89 bd 87 3c a9 bd c5 cf 79 3d
       0.011522844 -0.06718626 -0.08263498 0.06098916
000010 97 a7 2e be 27 ea 5f bd ef d5 b8 bd 50 fb 01 be
       -0.17056118 -0.054666664 -0.090251796 -0.12693524
000020 3b 56 44 3d 62 36 95 3c d9 e2 89 bd a4 65 ad bd
       0.0479338 0.018214408 -0.06732721 -0.08466652
000030 e1 03 ce 3c 91 c5 c2 ba 7d 61 a5 bc 57 9c 0a 3d
       0.025148334 -0.0014859905 -0.020188088 0.033840504
000040 ae 2d b5 bc f6 d7 22 be 96 58 16 bd af 86 82 bd
       -0.022116508 -0.15902695 -0.036705576 -0.06373345
000050 86 77 aa bd 09 ac 97 bd a9 7a c7 bd 31 1b 06 3d
       -0.083235785 -0.0740586 -0.097401924 0.032740775
000060 7e 70 6d bd eb c2 8c 3c 89 f8 21 bd f0 19 e7 bb
       -0.05796861 0.017182788 -0.039543662 -0.0070526525
000070 35 bf cf bd 56 88 bd 3c 68 1f c2 bd bc 8c fd bc
       -0.10143892 0.0231363 -0.094786465 -0.030950896
000080 d9 3d 02 3d e6 d9 0a bc e2 ee 22 bd 48 0e 04 3d
       0.031797264 -0.008474803 -0.039778598 0.032240182
000090 75 d3 62 bc 3f 38 9c bd 06 00 dd bc 2c 2d 9d bc
       -0.013844361 -0.076279156 -0.02697755 -0.019186579
0000a0 b0 c3 85 3d 06 6f 88 39 ef 6c 1f be bc 7b 5a bc
       0.06531465 0.0002602266 -0.15568899 -0.013335165
0000b0 05 e7 bf 3d 22 69 0a bd fc 41 81 bd 63 21 48 3d
       0.09370235 -0.03379167 -0.06311414 0.048859965
0000c0 05 ec b9 bd 37 12 bc bd aa 93 27 be 27 39 60 bd
       -0.0907822 -0.09183162 -0.16364923 -0.054742005
0000d0 c4 25 fd 3c 70 e7 c5 bd 1c cf 08 be 6c 62 ad bd
       0.030901797 -0.09663284 -0.13360256 -0.08466038
0000e0 d2 f1 03 be f4 33 73 3d 5a a2 11 3e 2c d0 aa bd
       -0.12885216 0.05937572 0.14222088 -0.08340487
0000f0 96 ee 38 bd 42 73 a8 3d b8 a8 81 bd bc ec 91 3d
       -0.04514941 0.08225109 -0.06331009 0.071252316
000100 ab 62 27 3b c7 b5 0b bb 3a 2d 1b 3b f6 08 c0 bc
       0.0025540988 -0.0021318065 0.002367808 -0.023441773
000110 57 54 40 bd d8 1c cc bc 79 5e b2 3b f4 61 e3 bd
       -0.046955433 -0.024916098 0.005443391 -0.111026675
000120 a6 c7 15 be d8 da 82 3c e3 0c 08 be e2 53 2d bd
       -0.14626941 0.015973493 -0.13286166 -0.042316325
000130 c1 b9 02 3d 41 41 9a bb 0f dd 86 3d 21 d4 89 3d
       0.03191543 -0.004707486 0.06585132 0.067299135
000140 28 20 79 bc a1 77 a8 bd 70 91 db bd 5d 1d 27 bb
       -0.015205421 -0.082259424 -0.107210994 -0.002549968
000150 96 ae fd bd fe 8d 7d bd a3 c0 10 bd 25 4f 41 3c
       -0.12386815 -0.061902992 -0.035339963 0.011798655
000160 2a 88 d9 3c 62 ca af bc 64 e9 aa bc f1 c4 cb bd
       0.026554186 -0.021458808 -0.020863242 -0.09949673
000170 ab e6 e0 bc 1e f4 ff 3c ff 4a f2 3b a1 91 15 be
       -0.027453741 0.031244334 0.007394194 -0.14606334
000180 91 6e 4a bb 5f 55 58 be 94 54 20 bd 56 92 98 bd
       -0.0030888657 -0.21126316 -0.03914316 -0.07449786
000190 9d f6 de 3c ab 86 16 3d fc 86 80 bd f6 70 c7 bd
       0.027217204 0.036749523 -0.06275746 -0.097383425
0001a0 63 c3 a9 bd a2 0e ab 3d 4a 65 18 ba c2 1f a0 3d
       -0.0828922 0.083524 -0.0005813433 0.07818557
0001b0 02 88 35 3c 68 a3 af bd c9 01 ad bd f0 36 a8 bd
       0.01107979 -0.08576089 -0.08447606 -0.082136035
0001c0 e8 58 01 bd 15 98 17 3c 03 73 4f 3d 50 71 00 be
       -0.03157893 0.009252568 0.050646793 -0.12543225
0001d0 14 d3 f1 bc 72 fd e1 3c 19 b7 d4 bc 0e d2 bf bc
       -0.029519595 0.027586672 -0.025966214 -0.023415592
0001e0 1f fe e4 bc 31 ad df ba 47 33 b5 bd 7d fc c2 3b
       -0.027953206 -0.0017065165 -0.08847671 0.005950509
0001f0 86 cd 41 bc 0b cd b7 bb 54 d9 0e 3e 00 a9 68 bc
       -0.011828786 -0.00560916 0.13950092 -0.014200449
000200 60 e5 5f 3d bf be 93 3d 4d 1c 40 bd d2 72 59 3d
       0.05466211 0.07214116 -0.04690199 0.053088017
000210 4f 5b 38 be ff d0 cd bc 66 fa ca bc 3d 35 27 3c
       -0.18003581 -0.025124071 -0.024777602 0.010205564
000220 d1 09 e8 bd c9 28 aa 3c 40 24 76 bd 0d ab a5 3d
       -0.11329997 0.020771401 -0.060093164 0.08089266
000230 3b a5 88 3d 98 ab d7 3c 03 a4 1a 3d 1b d2 9a 3c
       0.0667214 0.02632694 0.03775407 0.018899014
000240 e2 d1 d2 3d c4 67 c9 bd 71 3a 49 3d 67 46 72 bd
       0.10293938 -0.09834245 0.049128 -0.059149172
000250 e6 be 93 3d 8e 8d 75 3d 7b 9e 3f 3d 8d 04 34 bd
       0.07214145 0.05994945 0.046781998 -0.043949652
000260 05 17 2f 3d b6 a4 84 3d a0 cb f0 3d e2 40 9a 3e
       0.042746563 0.064767286 0.117575884 0.30127627
000270 8f af fd 3d 88 23 0d 3c 8a 7d 80 bd 67 85 43 3b
       0.12387001 0.008614428 -0.06273945 0.0029834153
000280 4f 28 26 bd 48 93 a4 3c 4d 1a 14 3d 0f 6e ed 3c
       -0.040565785 0.02008976 0.036157895 0.028983144
000290 c0 46 02 be 50 f4 36 bc 1b 9f 2c 3c bb 9d ca bd
       -0.12722301 -0.011166647 0.010535981 -0.09893366
0002a0 dd 1c 9e bd 68 46 ea bc a0 b6 c8 3d 61 03 50 bc
       -0.07720349 -0.028598025 0.09800458 -0.012696118
0002b0 fd b3 d2 bd 84 eb 86 bd 2a d2 94 bd ae 0a 33 3d
       -0.10288236 -0.0658789 -0.07266648 0.043711357
0002c0 eb 87 98 bd e9 45 7c bd 9c 10 2e bc a2 71 2a bd
       -0.07447799 -0.06159011 -0.010624077 -0.041612275
0002d0 64 f6 a4 bd 2f fc e2 bd e3 a4 10 3e a0 5a d2 bd
       -0.08054808 -0.110832565 0.141254 -0.102711916
0002e0 92 4e 80 bd 02 27 3b 3e ce 08 77 bd a9 6c c0 3d
       -0.06264986 0.18276599 -0.06031113 0.09395725
0002f0 e6 f4 99 bd 10 d3 48 bd c8 46 ce 3d c8 ab 93 3d
       -0.07517414 -0.04902941 0.10072094 0.07210499
000300 76 13 a5 bb 3b 56 0a be 85 e9 14 be 69 0a a9 bd
       -0.0050377203 -0.13509457 -0.14542206 -0.08253939
000310 12 e7 a1 3b 9b 85 02 3d 1a fa 03 3d 65 d6 88 bb
       0.004940876 0.031865697 0.032220937 -0.0041759484
000320 59 99 58 3d ac df bc bd ce 33 f1 3b 86 45 60 3d
       0.05288062 -0.092223495 0.007360912 0.054753803
000330 a0 a6 44 bd 6d 3f c2 bd d6 69 43 3d 52 d2 93 3d
       -0.04801047 -0.09484754 0.047708355 0.0721785
000340 dc 23 85 bd 26 47 2e 3e 87 05 93 3d 38 7f 3a 3d
       -0.0650098 0.17019328 0.07178789 0.04553148
000350 32 39 aa 3c 88 c6 79 ba e9 5d 38 3d 93 b6 8c bd
       0.020779226 -0.00095281797 0.045011435 -0.06870761
000360 75 1a 4f 3c d3 5e 4a 3c d3 8a 75 bd 16 ae a4 bb
       0.012640585 0.012351709 -0.059946846 -0.0050256355
000370 52 a3 88 bd a6 90 8c bd 6d a7 9c bd 51 fe c3 bd
       -0.06671776 -0.06863527 -0.076491214 -0.095699914
000380 c6 24 d6 bd 43 b9 d2 38 b7 0e 34 bd aa 31 e7 bd
       -0.10456233 0.00010048088 -0.043959346 -0.112887695
000390 13 c2 dd 3c 03 7c 01 3d 83 c1 4f bd 8a d1 08 be
       0.02707008 0.031612407 -0.050721657 -0.13361183
0003a0 b8 0d b2 bd 07 1e ad bd 16 9d 8f 3d 27 10 19 bd
       -0.08694023 -0.08452993 0.07012384 -0.03736892
0003b0 3c 67 92 bd 2b 26 95 3d 2e 00 b5 bc 6b d2 2e bd
       -0.07148597 0.072826706 -0.022094812 -0.04268114
0003c0 b4 aa 26 3d 86 08 57 bd 6b e5 99 3d 5e f4 a1 bb
       0.04069014 -0.052498363 0.07514461 -0.004942461
0003d0 9b 7e a4 3d a2 ee 24 bd ee f1 d9 bd fe f5 64 bd
       0.080319606 -0.04026664 -0.106418476 -0.05589866
0003e0 ce 8d 86 bd 85 26 f2 3c 44 4d 3a 3c f9 10 5f 3d
       -0.06570016 0.029559383 0.011370961 0.054459546
0003f0 c0 c1 4c 3e 1b bc f0 bd 05 be c4 bd 1c 90 68 bc
       0.19995785 -0.11754628 -0.09606556 -0.014194515
